…
.self_attn.in_proj_bias', 'bio_encoder.encoder.layers.0.linear1.weight', 'bio_encoder.encoder.layers.0.linear2.bias', 'bio_encoder.encoder.layers.0.self_attn.out_proj.weight']
You should probably TRAIN this model on a down-stream task to be able to use it for predictions and inference.
> /shared/nas2/jk100/partonomy_private/src/models/PLUM/model/llava/model/llava_arch.py(60)initialize_vision_modules()
-> self.config.use_mm_proj = True
CLIPVisionTower(
  (vision_tower): CLIPVisionModel(
    (vision_model): CLIPVisionTransformer(
      (embeddings): CLIPVisionEmbeddings(
        (patch_embedding): Conv2d(3, 1024, kernel_size=(14, 14), stride=(14, 14), bias=False)
        (position_embedding): Embedding(257, 1024)
      )
      (pre_layrnorm): LayerNorm((1024,), eps=1e-05, elementwise_affine=True)
      (encoder): CLIPEncoder(
        (layers): ModuleList(
          (0-23): 24 x CLIPEncoderLayer(
            (self_attn): CLIPAttention(
              (k_proj): Linear(in_features=1024, out_features=1024, bias=True)
              (v_proj): Linear(in_features=1024, out_features=1024, bias=True)
              (q_proj): Linear(in_features=1024, out_features=1024, bias=True)
              (out_proj): Linear(in_features=1024, out_features=1024, bias=True)
            )
            (layer_norm1): LayerNorm((1024,), eps=1e-05, elementwise_affine=True)
            (mlp): CLIPMLP(
              (activation_fn): QuickGELUActivation()
              (fc1): Linear(in_features=1024, out_features=4096, bias=True)
              (fc2): Linear(in_features=4096, out_features=1024, bias=True)
            )
            (layer_norm2): LayerNorm((1024,), eps=1e-05, elementwise_affine=True)
          )
        )
      )
      (post_layernorm): LayerNorm((1024,), eps=1e-05, elementwise_affine=True)
    )
  )
)
1024
Traceback (most recent call last):
  File "/shared/nas2/jk100/partonomy_private/src/models/PLUM/plum_train_ds.py", line 908, in <module>
    main(sys.argv[1:])
  File "/shared/nas2/jk100/partonomy_private/src/models/PLUM/plum_train_ds.py", line 284, in main
    model.get_model().initialize_vision_modules(model.get_model().config)
  File "/shared/nas2/jk100/partonomy_private/src/models/PLUM/model/llava/model/llava_arch.py", line 60, in initialize_vision_modules
…
