…
ers.0.linear1.bias', 'model.vision_tower.visual.transformer.resblocks.20.mlp.c_proj.bias', 'model.vision_tower.transformer.resblocks.9.attn.out_proj.weight', 'model.vision_tower.transformer.resblocks.3.attn.out_proj.weight', 'model.vision_tower.transformer.resblocks.10.mlp.c_proj.weight']
You should probably TRAIN this model on a down-stream task to be able to use it for predictions and inference.
> /shared/nas2/jk100/partonomy_private/src/models/PLUM/model/llava/model/llava_arch.py(60)initialize_vision_modules()
-> self.config.use_mm_proj = True
CLIP(
  (visual): VisionTransformer(
    (conv1): Conv2d(3, 1024, kernel_size=(14, 14), stride=(14, 14), bias=False)
    (ln_pre): LayerNorm((1024,), eps=1e-05, elementwise_affine=True)
    (transformer): Transformer(
      (resblocks): Sequential(
        (0): ResidualAttentionBlock(
          (attn): MultiheadAttention(
            (out_proj): NonDynamicallyQuantizableLinear(in_features=1024, out_features=1024, bias=True)
          )
          (ln_1): LayerNorm((1024,), eps=1e-05, elementwise_affine=True)
          (mlp): Sequential(
            (c_fc): Linear(in_features=1024, out_features=4096, bias=True)
            (gelu): QuickGELU()
            (c_proj): Linear(in_features=4096, out_features=1024, bias=True)
          )
          (ln_2): LayerNorm((1024,), eps=1e-05, elementwise_affine=True)
        )
        (1): ResidualAttentionBlock(
          (attn): MultiheadAttention(
            (out_proj): NonDynamicallyQuantizableLinear(in_features=1024, out_features=1024, bias=True)
          )
          (ln_1): LayerNorm((1024,), eps=1e-05, elementwise_affine=True)
          (mlp): Sequential(
            (c_fc): Linear(in_features=1024, out_features=4096, bias=True)
            (gelu): QuickGELU()
            (c_proj): Linear(in_features=4096, out_features=1024, bias=True)
          )
          (ln_2): LayerNorm((1024,), eps=1e-05, elementwise_affine=True)
        )
        (2): ResidualAttentionBlock(
          (attn): MultiheadAttention(
            (out_proj): NonDynamicallyQuantizableLinear(in_features=1024, out_features=1024, bias=True)
          )
          (ln_1): LayerNorm((1024,), eps=1e-05, elementwise_affine=True)
          (mlp): Sequential(
            (c_fc): Linear(in_features=1024, out_features=4096, bias=True)
            (gelu): QuickGELU()
            (c_proj): Linear(in_features=4096, out_features=1024, bias=True)
          )
          (ln_2): LayerNorm((1024,), eps=1e-05, elementwise_affine=True)
        )
        (3): ResidualAttentionBlock(
          (attn): MultiheadAttention(
            (out_proj): NonDynamicallyQuantizableLinear(in_features=1024, out_features=1024, bias=True)
          )
          (ln_1): LayerNorm((1024,), eps=1e-05, elementwise_affine=True)
          (mlp): Sequential(
            (c_fc): Linear(in_features=1024, out_features=4096, bias=True)
            (gelu): QuickGELU()
            (c_proj): Linear(in_features=4096, out_features=1024, bias=True)
          )
          (ln_2): LayerNorm((1024,), eps=1e-05, elementwise_affine=True)
        )
        (4): ResidualAttentionBlock(
          (attn): MultiheadAttention(
            (out_proj): NonDynamicallyQuantizableLinear(in_features=1024, out_features=1024, bias=True)
          )
          (ln_1): LayerNorm((1024,), eps=1e-05, elementwise_affine=True)
          (mlp): Sequential(
            (c_fc): Linear(in_features=1024, out_features=4096, bias=True)
            (gelu): QuickGELU()
            (c_proj): Linear(in_features=4096, out_features=1024, bias=True)
          )
          (ln_2): LayerNorm((1024,), eps=1e-05, elementwise_affine=True)
        )
        (5): ResidualAttentionBlock(
          (attn): MultiheadAttention(
            (out_proj): NonDynamicallyQuantizableLinear(in_features=1024, out_features=1024, bias=True)
          )
          (ln_1): LayerNorm((1024,), eps=1e-05, elementwise_affine=True)
          (mlp): Sequential(
            (c_fc): Linear(in_features=1024, out_features=4096, bias=True)
            (gelu): QuickGELU()
            (c_proj): Linear(in_features=4096, out_features=1024, bias=True)
          )
          (ln_2): LayerNorm((1024,), eps=1e-05, elementwise_affine=True)
        )
        (6): ResidualAttentionBlock(
          (attn): MultiheadAttention(
            (out_proj): NonDynamicallyQuantizableLinear(in_features=1024, out_features=1024, bias=True)
          )
          (ln_1): LayerNorm((1024,), eps=1e-05, elementwise_affine=True)
          (mlp): Sequential(
            (c_fc): Linear(in_features=1024, out_features=4096, bias=True)
            (gelu): QuickGELU()
            (c_proj): Linear(in_features=4096, out_features=1024, bias=True)
          )
          (ln_2): LayerNorm((1024,), eps=1e-05, elementwise_affine=True)
        )
        (7): ResidualAttentionBlock(
          (attn): MultiheadAttention(
            (out_proj): NonDynamicallyQuantizableLinear(in_features=1024, out_features=1024, bias=True)
          )
          (ln_1): LayerNorm((1024,), eps=1e-05, elementwise_affine=True)
          (mlp): Sequential(
            (c_fc): Linear(in_features=1024, out_features=4096, bias=True)
            (gelu): QuickGELU()
            (c_proj): Linear(in_features=4096, out_features=1024, bias=True)
          )
          (ln_2): LayerNorm((1024,), eps=1e-05, elementwise_affine=True)
        )
        (8): ResidualAttentionBlock(
          (attn): MultiheadAttention(
            (out_proj): NonDynamicallyQuantizableLinear(in_features=1024, out_features=1024, bias=True)
          )
          (ln_1): LayerNorm((1024,), eps=1e-05, elementwise_affine=True)
          (mlp): Sequential(
            (c_fc): Linear(in_features=1024, out_features=4096, bias=True)
            (gelu): QuickGELU()
            (c_proj): Linear(in_features=4096, out_features=1024, bias=True)
          )
          (ln_2): LayerNorm((1024,), eps=1e-05, elementwise_affine=True)
        )
        (9): ResidualAttentionBlock(
          (attn): MultiheadAttention(
            (out_proj): NonDynamicallyQuantizableLinear(in_features=1024, out_features=1024, bias=True)
          )
          (ln_1): LayerNorm((1024,), eps=1e-05, elementwise_affine=True)
          (mlp): Sequential(
            (c_fc): Linear(in_features=1024, out_features=4096, bias=True)
            (gelu): QuickGELU()
            (c_proj): Linear(in_features=4096, out_features=1024, bias=True)
          )
          (ln_2): LayerNorm((1024,), eps=1e-05, elementwise_affine=True)
        )
        (10): ResidualAttentionBlock(
          (attn): MultiheadAttention(
            (out_proj): NonDynamicallyQuantizableLinear(in_features=1024, out_features=1024, bias=True)
          )
          (ln_1): LayerNorm((1024,), eps=1e-05, elementwise_affine=True)
          (mlp): Sequential(
            (c_fc): Linear(in_features=1024, out_features=4096, bias=True)
            (gelu): QuickGELU()
            (c_proj): Linear(in_features=4096, out_features=1024, bias=True)
          )
          (ln_2): LayerNorm((1024,), eps=1e-05, elementwise_affine=True)
        )
        (11): ResidualAttentionBlock(
          (attn): MultiheadAttention(
            (out_proj): NonDynamicallyQuantizableLinear(in_features=1024, out_features=1024, bias=True)
          )
          (ln_1): LayerNorm((1024,), eps=1e-05, elementwise_affine=True)
          (mlp): Sequential(
            (c_fc): Linear(in_features=1024, out_features=4096, bias=True)
            (gelu): QuickGELU()
            (c_proj): Linear(in_features=4096, out_features=1024, bias=True)
          )
          (ln_2): LayerNorm((1024,), eps=1e-05, elementwise_affine=True)
        )
        (12): ResidualAttentionBlock(
          (attn): MultiheadAttention(
            (out_proj): NonDynamicallyQuantizableLinear(in_features=1024, out_features=1024, bias=True)
          )
          (ln_1): LayerNorm((1024,), eps=1e-05, elementwise_affine=True)
          (mlp): Sequential(
            (c_fc): Linear(in_features=1024, out_features=4096, bias=True)
            (gelu): QuickGELU()
            (c_proj): Linear(in_features=4096, out_features=1024, bias=True)
          )
          (ln_2): LayerNorm((1024,), eps=1e-05, elementwise_affine=True)
        )
        (13): ResidualAttentionBlock(
          (attn): MultiheadAttention(
            (out_proj): NonDynamicallyQuantizableLinear(in_features=1024, out_features=1024, bias=True)
          )
          (ln_1): LayerNorm((1024,), eps=1e-05, elementwise_affine=True)
          (mlp): Sequential(
            (c_fc): Linear(in_features=1024, out_features=4096, bias=True)
            (gelu): QuickGELU()
            (c_proj): Linear(in_features=4096, out_features=1024, bias=True)
          )
          (ln_2): LayerNorm((1024,), eps=1e-05, elementwise_affine=True)
        )
        (14): ResidualAttentionBlock(
          (attn): MultiheadAttention(
            (out_proj): NonDynamicallyQuantizableLinear(in_features=1024, out_features=1024, bias=True)
          )
          (ln_1): LayerNorm((1024,), eps=1e-05, elementwise_affine=True)
          (mlp): Sequential(
            (c_fc): Linear(in_features=1024, out_features=4096, bias=True)
            (gelu): QuickGELU()
            (c_proj): Linear(in_features=4096, out_features=1024, bias=True)
          )
          (ln_2): LayerNorm((1024,), eps=1e-05, elementwise_affine=True)
        )
        (15): ResidualAttentionBlock(
          (attn): MultiheadAttention(
            (out_proj): NonDynamicallyQuantizableLinear(in_features=1024, out_features=1024, bias=True)
          )
          (ln_1): LayerNorm((1024,), eps=1e-05, elementwise_affine=True)
          (mlp): Sequential(
            (c_fc): Linear(in_features=1024, out_features=4096, bias=True)
            (gelu): QuickGELU()
            (c_proj): Linear(in_features=4096, out_features=1024, bias=True)
          )
          (ln_2): LayerNorm((1024,), eps=1e-05, elementwise_affine=True)
        )
        (16): ResidualAttentionBlock(
          (attn): MultiheadAttention(
            (out_proj): NonDynamicallyQuantizableLinear(in_features=1024, out_features=1024, bias=True)
          )
          (ln_1): LayerNorm((1024,), eps=1e-05, elementwise_affine=True)
          (mlp): Sequential(
            (c_fc): Linear(in_features=1024, out_features=4096, bias=True)
            (gelu): QuickGELU()
            (c_proj): Linear(in_features=4096, out_features=1024, bias=True)
          )
          (ln_2): LayerNorm((1024,), eps=1e-05, elementwise_affine=True)
        )
        (17): ResidualAttentionBlock(
          (attn): MultiheadAttention(
            (out_proj): NonDynamicallyQuantizableLinear(in_features=1024, out_features=1024, bias=True)
          )
          (ln_1): LayerNorm((1024,), eps=1e-05, elementwise_affine=True)
          (mlp): Sequential(
            (c_fc): Linear(in_features=1024, out_features=4096, bias=True)
            (gelu): QuickGELU()
            (c_proj): Linear(in_features=4096, out_features=1024, bias=True)
          )
          (ln_2): LayerNorm((1024,), eps=1e-05, elementwise_affine=True)
        )
        (18): ResidualAttentionBlock(
          (attn): MultiheadAttention(
            (out_proj): NonDynamicallyQuantizableLinear(in_features=1024, out_features=1024, bias=True)
          )
          (ln_1): LayerNorm((1024,), eps=1e-05, elementwise_affine=True)
          (mlp): Sequential(
            (c_fc): Linear(in_features=1024, out_features=4096, bias=True)
            (gelu): QuickGELU()
            (c_proj): Linear(in_features=4096, out_features=1024, bias=True)
          )
          (ln_2): LayerNorm((1024,), eps=1e-05, elementwise_affine=True)
        )
        (19): ResidualAttentionBlock(
          (attn): MultiheadAttention(
            (out_proj): NonDynamicallyQuantizableLinear(in_features=1024, out_features=1024, bias=True)
          )
          (ln_1): LayerNorm((1024,), eps=1e-05, elementwise_affine=True)
          (mlp): Sequential(
            (c_fc): Linear(in_features=1024, out_features=4096, bias=True)
            (gelu): QuickGELU()
            (c_proj): Linear(in_features=4096, out_features=1024, bias=True)
          )
          (ln_2): LayerNorm((1024,), eps=1e-05, elementwise_affine=True)
        )
        (20): ResidualAttentionBlock(
          (attn): MultiheadAttention(
            (out_proj): NonDynamicallyQuantizableLinear(in_features=1024, out_features=1024, bias=True)
          )
          (ln_1): LayerNorm((1024,), eps=1e-05, elementwise_affine=True)
          (mlp): Sequential(
            (c_fc): Linear(in_features=1024, out_features=4096, bias=True)
            (gelu): QuickGELU()
            (c_proj): Linear(in_features=4096, out_features=1024, bias=True)
          )
          (ln_2): LayerNorm((1024,), eps=1e-05, elementwise_affine=True)
        )
        (21): ResidualAttentionBlock(
          (attn): MultiheadAttention(
            (out_proj): NonDynamicallyQuantizableLinear(in_features=1024, out_features=1024, bias=True)
          )
          (ln_1): LayerNorm((1024,), eps=1e-05, elementwise_affine=True)
          (mlp): Sequential(
            (c_fc): Linear(in_features=1024, out_features=4096, bias=True)
            (gelu): QuickGELU()
            (c_proj): Linear(in_features=4096, out_features=1024, bias=True)
          )
          (ln_2): LayerNorm((1024,), eps=1e-05, elementwise_affine=True)
        )
        (22): ResidualAttentionBlock(
          (attn): MultiheadAttention(
            (out_proj): NonDynamicallyQuantizableLinear(in_features=1024, out_features=1024, bias=True)
          )
          (ln_1): LayerNorm((1024,), eps=1e-05, elementwise_affine=True)
          (mlp): Sequential(
            (c_fc): Linear(in_features=1024, out_features=4096, bias=True)
            (gelu): QuickGELU()
            (c_proj): Linear(in_features=4096, out_features=1024, bias=True)
          )
          (ln_2): LayerNorm((1024,), eps=1e-05, elementwise_affine=True)
        )
        (23): ResidualAttentionBlock(
          (attn): MultiheadAttention(
            (out_proj): NonDynamicallyQuantizableLinear(in_features=1024, out_features=1024, bias=True)
          )
          (ln_1): LayerNorm((1024,), eps=1e-05, elementwise_affine=True)
          (mlp): Sequential(
            (c_fc): Linear(in_features=1024, out_features=4096, bias=True)
            (gelu): QuickGELU()
            (c_proj): Linear(in_features=4096, out_features=1024, bias=True)
          )
          (ln_2): LayerNorm((1024,), eps=1e-05, elementwise_affine=True)
        )
      )
    )
    (ln_post): LayerNorm((1024,), eps=1e-05, elementwise_affine=True)
  )
  (transformer): Transformer(
    (resblocks): Sequential(
      (0): ResidualAttentionBlock(
        (attn): MultiheadAttention(
          (out_proj): NonDynamicallyQuantizableLinear(in_features=768, out_features=768, bias=True)
        )
        (ln_1): LayerNorm((768,), eps=1e-05, elementwise_affine=True)
        (mlp): Sequential(
          (c_fc): Linear(in_features=768, out_features=3072, bias=True)
          (gelu): QuickGELU()
          (c_proj): Linear(in_features=3072, out_features=768, bias=True)
        )
        (ln_2): LayerNorm((768,), eps=1e-05, elementwise_affine=True)
      )
      (1): ResidualAttentionBlock(
        (attn): MultiheadAttention(
          (out_proj): NonDynamicallyQuantizableLinear(in_features=768, out_features=768, bias=True)
        )
        (ln_1): LayerNorm((768,), eps=1e-05, elementwise_affine=True)
        (mlp): Sequential(
          (c_fc): Linear(in_features=768, out_features=3072, bias=True)
          (gelu): QuickGELU()
          (c_proj): Linear(in_features=3072, out_features=768, bias=True)
        )
        (ln_2): LayerNorm((768,), eps=1e-05, elementwise_affine=True)
      )
      (2): ResidualAttentionBlock(
        (attn): MultiheadAttention(
          (out_proj): NonDynamicallyQuantizableLinear(in_features=768, out_features=768, bias=True)
        )
        (ln_1): LayerNorm((768,), eps=1e-05, elementwise_affine=True)
        (mlp): Sequential(
          (c_fc): Linear(in_features=768, out_features=3072, bias=True)
          (gelu): QuickGELU()
          (c_proj): Linear(in_features=3072, out_features=768, bias=True)
        )
        (ln_2): LayerNorm((768,), eps=1e-05, elementwise_affine=True)
      )
      (3): ResidualAttentionBlock(
        (attn): MultiheadAttention(
          (out_proj): NonDynamicallyQuantizableLinear(in_features=768, out_features=768, bias=True)
        )
        (ln_1): LayerNorm((768,), eps=1e-05, elementwise_affine=True)
        (mlp): Sequential(
          (c_fc): Linear(in_features=768, out_features=3072, bias=True)
          (gelu): QuickGELU()
          (c_proj): Linear(in_features=3072, out_features=768, bias=True)
        )
        (ln_2): LayerNorm((768,), eps=1e-05, elementwise_affine=True)
      )
      (4): ResidualAttentionBlock(
        (attn): MultiheadAttention(
          (out_proj): NonDynamicallyQuantizableLinear(in_features=768, out_features=768, bias=True)
        )
        (ln_1): LayerNorm((768,), eps=1e-05, elementwise_affine=True)
        (mlp): Sequential(
          (c_fc): Linear(in_features=768, out_features=3072, bias=True)
          (gelu): QuickGELU()
          (c_proj): Linear(in_features=3072, out_features=768, bias=True)
        )
        (ln_2): LayerNorm((768,), eps=1e-05, elementwise_affine=True)
      )
      (5): ResidualAttentionBlock(
        (attn): MultiheadAttention(
          (out_proj): NonDynamicallyQuantizableLinear(in_features=768, out_features=768, bias=True)
        )
        (ln_1): LayerNorm((768,), eps=1e-05, elementwise_affine=True)
        (mlp): Sequential(
          (c_fc): Linear(in_features=768, out_features=3072, bias=True)
          (gelu): QuickGELU()
          (c_proj): Linear(in_features=3072, out_features=768, bias=True)
        )
        (ln_2): LayerNorm((768,), eps=1e-05, elementwise_affine=True)
      )
      (6): ResidualAttentionBlock(
        (attn): MultiheadAttention(
          (out_proj): NonDynamicallyQuantizableLinear(in_features=768, out_features=768, bias=True)
        )
        (ln_1): LayerNorm((768,), eps=1e-05, elementwise_affine=True)
        (mlp): Sequential(
          (c_fc): Linear(in_features=768, out_features=3072, bias=True)
          (gelu): QuickGELU()
          (c_proj): Linear(in_features=3072, out_features=768, bias=True)
        )
        (ln_2): LayerNorm((768,), eps=1e-05, elementwise_affine=True)
      )
      (7): ResidualAttentionBlock(
        (attn): MultiheadAttention(
          (out_proj): NonDynamicallyQuantizableLinear(in_features=768, out_features=768, bias=True)
        )
        (ln_1): LayerNorm((768,), eps=1e-05, elementwise_affine=True)
        (mlp): Sequential(
          (c_fc): Linear(in_features=768, out_features=3072, bias=True)
          (gelu): QuickGELU()
          (c_proj): Linear(in_features=3072, out_features=768, bias=True)
        )
        (ln_2): LayerNorm((768,), eps=1e-05, elementwise_affine=True)
      )
      (8): ResidualAttentionBlock(
        (attn): MultiheadAttention(
          (out_proj): NonDynamicallyQuantizableLinear(in_features=768, out_features=768, bias=True)
        )
        (ln_1): LayerNorm((768,), eps=1e-05, elementwise_affine=True)
        (mlp): Sequential(
          (c_fc): Linear(in_features=768, out_features=3072, bias=True)
          (gelu): QuickGELU()
          (c_proj): Linear(in_features=3072, out_features=768, bias=True)
        )
        (ln_2): LayerNorm((768,), eps=1e-05, elementwise_affine=True)
      )
      (9): ResidualAttentionBlock(
        (attn): MultiheadAttention(
          (out_proj): NonDynamicallyQuantizableLinear(in_features=768, out_features=768, bias=True)
        )
        (ln_1): LayerNorm((768,), eps=1e-05, elementwise_affine=True)
        (mlp): Sequential(
          (c_fc): Linear(in_features=768, out_features=3072, bias=True)
          (gelu): QuickGELU()
          (c_proj): Linear(in_features=3072, out_features=768, bias=True)
        )
        (ln_2): LayerNorm((768,), eps=1e-05, elementwise_affine=True)
      )
      (10): ResidualAttentionBlock(
        (attn): MultiheadAttention(
          (out_proj): NonDynamicallyQuantizableLinear(in_features=768, out_features=768, bias=True)
        )
        (ln_1): LayerNorm((768,), eps=1e-05, elementwise_affine=True)
        (mlp): Sequential(
          (c_fc): Linear(in_features=768, out_features=3072, bias=True)
          (gelu): QuickGELU()
          (c_proj): Linear(in_features=3072, out_features=768, bias=True)
        )
        (ln_2): LayerNorm((768,), eps=1e-05, elementwise_affine=True)
      )
      (11): ResidualAttentionBlock(
        (attn): MultiheadAttention(
          (out_proj): NonDynamicallyQuantizableLinear(in_features=768, out_features=768, bias=True)
        )
        (ln_1): LayerNorm((768,), eps=1e-05, elementwise_affine=True)
        (mlp): Sequential(
          (c_fc): Linear(in_features=768, out_features=3072, bias=True)
          (gelu): QuickGELU()
          (c_proj): Linear(in_features=3072, out_features=768, bias=True)
        )
        (ln_2): LayerNorm((768,), eps=1e-05, elementwise_affine=True)
      )
    )
  )
  (token_embedding): Embedding(49408, 768)
  (ln_final): LayerNorm((768,), eps=1e-05, elementwise_affine=True)
)
*** TypeError: 'CLIP' object is not subscriptable
VisionTransformer(
  (conv1): Conv2d(3, 1024, kernel_size=(14, 14), stride=(14, 14), bias=False)
  (ln_pre): LayerNorm((1024,), eps=1e-05, elementwise_affine=True)
  (transformer): Transformer(
    (resblocks): Sequential(
      (0): ResidualAttentionBlock(
        (attn): MultiheadAttention(
          (out_proj): NonDynamicallyQuantizableLinear(in_features=1024, out_features=1024, bias=True)
        )
        (ln_1): LayerNorm((1024,), eps=1e-05, elementwise_affine=True)
        (mlp): Sequential(
          (c_fc): Linear(in_features=1024, out_features=4096, bias=True)
          (gelu): QuickGELU()
          (c_proj): Linear(in_features=4096, out_features=1024, bias=True)
        )
        (ln_2): LayerNorm((1024,), eps=1e-05, elementwise_affine=True)
      )
      (1): ResidualAttentionBlock(
        (attn): MultiheadAttention(
          (out_proj): NonDynamicallyQuantizableLinear(in_features=1024, out_features=1024, bias=True)
        )
        (ln_1): LayerNorm((1024,), eps=1e-05, elementwise_affine=True)
        (mlp): Sequential(
          (c_fc): Linear(in_features=1024, out_features=4096, bias=True)
          (gelu): QuickGELU()
          (c_proj): Linear(in_features=4096, out_features=1024, bias=True)
        )
        (ln_2): LayerNorm((1024,), eps=1e-05, elementwise_affine=True)
      )
      (2): ResidualAttentionBlock(
        (attn): MultiheadAttention(
          (out_proj): NonDynamicallyQuantizableLinear(in_features=1024, out_features=1024, bias=True)
        )
        (ln_1): LayerNorm((1024,), eps=1e-05, elementwise_affine=True)
        (mlp): Sequential(
          (c_fc): Linear(in_features=1024, out_features=4096, bias=True)
          (gelu): QuickGELU()
          (c_proj): Linear(in_features=4096, out_features=1024, bias=True)
        )
        (ln_2): LayerNorm((1024,), eps=1e-05, elementwise_affine=True)
      )
      (3): ResidualAttentionBlock(
        (attn): MultiheadAttention(
          (out_proj): NonDynamicallyQuantizableLinear(in_features=1024, out_features=1024, bias=True)
        )
        (ln_1): LayerNorm((1024,), eps=1e-05, elementwise_affine=True)
        (mlp): Sequential(
          (c_fc): Linear(in_features=1024, out_features=4096, bias=True)
          (gelu): QuickGELU()
          (c_proj): Linear(in_features=4096, out_features=1024, bias=True)
        )
        (ln_2): LayerNorm((1024,), eps=1e-05, elementwise_affine=True)
      )
      (4): ResidualAttentionBlock(
        (attn): MultiheadAttention(
          (out_proj): NonDynamicallyQuantizableLinear(in_features=1024, out_features=1024, bias=True)
        )
        (ln_1): LayerNorm((1024,), eps=1e-05, elementwise_affine=True)
        (mlp): Sequential(
          (c_fc): Linear(in_features=1024, out_features=4096, bias=True)
          (gelu): QuickGELU()
          (c_proj): Linear(in_features=4096, out_features=1024, bias=True)
        )
        (ln_2): LayerNorm((1024,), eps=1e-05, elementwise_affine=True)
      )
      (5): ResidualAttentionBlock(
        (attn): MultiheadAttention(
          (out_proj): NonDynamicallyQuantizableLinear(in_features=1024, out_features=1024, bias=True)
        )
        (ln_1): LayerNorm((1024,), eps=1e-05, elementwise_affine=True)
        (mlp): Sequential(
          (c_fc): Linear(in_features=1024, out_features=4096, bias=True)
          (gelu): QuickGELU()
          (c_proj): Linear(in_features=4096, out_features=1024, bias=True)
        )
        (ln_2): LayerNorm((1024,), eps=1e-05, elementwise_affine=True)
      )
      (6): ResidualAttentionBlock(
        (attn): MultiheadAttention(
          (out_proj): NonDynamicallyQuantizableLinear(in_features=1024, out_features=1024, bias=True)
        )
        (ln_1): LayerNorm((1024,), eps=1e-05, elementwise_affine=True)
        (mlp): Sequential(
          (c_fc): Linear(in_features=1024, out_features=4096, bias=True)
          (gelu): QuickGELU()
          (c_proj): Linear(in_features=4096, out_features=1024, bias=True)
        )
        (ln_2): LayerNorm((1024,), eps=1e-05, elementwise_affine=True)
      )
      (7): ResidualAttentionBlock(
        (attn): MultiheadAttention(
          (out_proj): NonDynamicallyQuantizableLinear(in_features=1024, out_features=1024, bias=True)
        )
        (ln_1): LayerNorm((1024,), eps=1e-05, elementwise_affine=True)
        (mlp): Sequential(
          (c_fc): Linear(in_features=1024, out_features=4096, bias=True)
          (gelu): QuickGELU()
          (c_proj): Linear(in_features=4096, out_features=1024, bias=True)
        )
        (ln_2): LayerNorm((1024,), eps=1e-05, elementwise_affine=True)
      )
      (8): ResidualAttentionBlock(
        (attn): MultiheadAttention(
          (out_proj): NonDynamicallyQuantizableLinear(in_features=1024, out_features=1024, bias=True)
        )
        (ln_1): LayerNorm((1024,), eps=1e-05, elementwise_affine=True)
        (mlp): Sequential(
          (c_fc): Linear(in_features=1024, out_features=4096, bias=True)
          (gelu): QuickGELU()
          (c_proj): Linear(in_features=4096, out_features=1024, bias=True)
        )
        (ln_2): LayerNorm((1024,), eps=1e-05, elementwise_affine=True)
      )
      (9): ResidualAttentionBlock(
        (attn): MultiheadAttention(
          (out_proj): NonDynamicallyQuantizableLinear(in_features=1024, out_features=1024, bias=True)
        )
        (ln_1): LayerNorm((1024,), eps=1e-05, elementwise_affine=True)
        (mlp): Sequential(
          (c_fc): Linear(in_features=1024, out_features=4096, bias=True)
          (gelu): QuickGELU()
          (c_proj): Linear(in_features=4096, out_features=1024, bias=True)
        )
        (ln_2): LayerNorm((1024,), eps=1e-05, elementwise_affine=True)
      )
      (10): ResidualAttentionBlock(
        (attn): MultiheadAttention(
          (out_proj): NonDynamicallyQuantizableLinear(in_features=1024, out_features=1024, bias=True)
        )
        (ln_1): LayerNorm((1024,), eps=1e-05, elementwise_affine=True)
        (mlp): Sequential(
          (c_fc): Linear(in_features=1024, out_features=4096, bias=True)
          (gelu): QuickGELU()
          (c_proj): Linear(in_features=4096, out_features=1024, bias=True)
        )
        (ln_2): LayerNorm((1024,), eps=1e-05, elementwise_affine=True)
      )
      (11): ResidualAttentionBlock(
        (attn): MultiheadAttention(
          (out_proj): NonDynamicallyQuantizableLinear(in_features=1024, out_features=1024, bias=True)
        )
        (ln_1): LayerNorm((1024,), eps=1e-05, elementwise_affine=True)
        (mlp): Sequential(
          (c_fc): Linear(in_features=1024, out_features=4096, bias=True)
          (gelu): QuickGELU()
          (c_proj): Linear(in_features=4096, out_features=1024, bias=True)
        )
        (ln_2): LayerNorm((1024,), eps=1e-05, elementwise_affine=True)
      )
      (12): ResidualAttentionBlock(
        (attn): MultiheadAttention(
          (out_proj): NonDynamicallyQuantizableLinear(in_features=1024, out_features=1024, bias=True)
        )
        (ln_1): LayerNorm((1024,), eps=1e-05, elementwise_affine=True)
        (mlp): Sequential(
          (c_fc): Linear(in_features=1024, out_features=4096, bias=True)
          (gelu): QuickGELU()
          (c_proj): Linear(in_features=4096, out_features=1024, bias=True)
        )
        (ln_2): LayerNorm((1024,), eps=1e-05, elementwise_affine=True)
      )
      (13): ResidualAttentionBlock(
        (attn): MultiheadAttention(
          (out_proj): NonDynamicallyQuantizableLinear(in_features=1024, out_features=1024, bias=True)
        )
        (ln_1): LayerNorm((1024,), eps=1e-05, elementwise_affine=True)
        (mlp): Sequential(
          (c_fc): Linear(in_features=1024, out_features=4096, bias=True)
          (gelu): QuickGELU()
          (c_proj): Linear(in_features=4096, out_features=1024, bias=True)
        )
        (ln_2): LayerNorm((1024,), eps=1e-05, elementwise_affine=True)
      )
      (14): ResidualAttentionBlock(
        (attn): MultiheadAttention(
          (out_proj): NonDynamicallyQuantizableLinear(in_features=1024, out_features=1024, bias=True)
        )
        (ln_1): LayerNorm((1024,), eps=1e-05, elementwise_affine=True)
        (mlp): Sequential(
          (c_fc): Linear(in_features=1024, out_features=4096, bias=True)
          (gelu): QuickGELU()
          (c_proj): Linear(in_features=4096, out_features=1024, bias=True)
        )
        (ln_2): LayerNorm((1024,), eps=1e-05, elementwise_affine=True)
      )
      (15): ResidualAttentionBlock(
        (attn): MultiheadAttention(
          (out_proj): NonDynamicallyQuantizableLinear(in_features=1024, out_features=1024, bias=True)
        )
        (ln_1): LayerNorm((1024,), eps=1e-05, elementwise_affine=True)
        (mlp): Sequential(
          (c_fc): Linear(in_features=1024, out_features=4096, bias=True)
          (gelu): QuickGELU()
          (c_proj): Linear(in_features=4096, out_features=1024, bias=True)
        )
        (ln_2): LayerNorm((1024,), eps=1e-05, elementwise_affine=True)
      )
      (16): ResidualAttentionBlock(
        (attn): MultiheadAttention(
          (out_proj): NonDynamicallyQuantizableLinear(in_features=1024, out_features=1024, bias=True)
        )
        (ln_1): LayerNorm((1024,), eps=1e-05, elementwise_affine=True)
        (mlp): Sequential(
          (c_fc): Linear(in_features=1024, out_features=4096, bias=True)
          (gelu): QuickGELU()
          (c_proj): Linear(in_features=4096, out_features=1024, bias=True)
        )
        (ln_2): LayerNorm((1024,), eps=1e-05, elementwise_affine=True)
      )
      (17): ResidualAttentionBlock(
        (attn): MultiheadAttention(
          (out_proj): NonDynamicallyQuantizableLinear(in_features=1024, out_features=1024, bias=True)
        )
        (ln_1): LayerNorm((1024,), eps=1e-05, elementwise_affine=True)
        (mlp): Sequential(
          (c_fc): Linear(in_features=1024, out_features=4096, bias=True)
          (gelu): QuickGELU()
          (c_proj): Linear(in_features=4096, out_features=1024, bias=True)
        )
        (ln_2): LayerNorm((1024,), eps=1e-05, elementwise_affine=True)
      )
      (18): ResidualAttentionBlock(
        (attn): MultiheadAttention(
          (out_proj): NonDynamicallyQuantizableLinear(in_features=1024, out_features=1024, bias=True)
        )
        (ln_1): LayerNorm((1024,), eps=1e-05, elementwise_affine=True)
        (mlp): Sequential(
          (c_fc): Linear(in_features=1024, out_features=4096, bias=True)
          (gelu): QuickGELU()
          (c_proj): Linear(in_features=4096, out_features=1024, bias=True)
        )
        (ln_2): LayerNorm((1024,), eps=1e-05, elementwise_affine=True)
      )
      (19): ResidualAttentionBlock(
        (attn): MultiheadAttention(
          (out_proj): NonDynamicallyQuantizableLinear(in_features=1024, out_features=1024, bias=True)
        )
        (ln_1): LayerNorm((1024,), eps=1e-05, elementwise_affine=True)
        (mlp): Sequential(
          (c_fc): Linear(in_features=1024, out_features=4096, bias=True)
          (gelu): QuickGELU()
          (c_proj): Linear(in_features=4096, out_features=1024, bias=True)
        )
        (ln_2): LayerNorm((1024,), eps=1e-05, elementwise_affine=True)
      )
      (20): ResidualAttentionBlock(
        (attn): MultiheadAttention(
          (out_proj): NonDynamicallyQuantizableLinear(in_features=1024, out_features=1024, bias=True)
        )
        (ln_1): LayerNorm((1024,), eps=1e-05, elementwise_affine=True)
        (mlp): Sequential(
          (c_fc): Linear(in_features=1024, out_features=4096, bias=True)
          (gelu): QuickGELU()
          (c_proj): Linear(in_features=4096, out_features=1024, bias=True)
        )
        (ln_2): LayerNorm((1024,), eps=1e-05, elementwise_affine=True)
      )
      (21): ResidualAttentionBlock(
        (attn): MultiheadAttention(
          (out_proj): NonDynamicallyQuantizableLinear(in_features=1024, out_features=1024, bias=True)
        )
        (ln_1): LayerNorm((1024,), eps=1e-05, elementwise_affine=True)
        (mlp): Sequential(
          (c_fc): Linear(in_features=1024, out_features=4096, bias=True)
          (gelu): QuickGELU()
          (c_proj): Linear(in_features=4096, out_features=1024, bias=True)
        )
        (ln_2): LayerNorm((1024,), eps=1e-05, elementwise_affine=True)
      )
      (22): ResidualAttentionBlock(
        (attn): MultiheadAttention(
          (out_proj): NonDynamicallyQuantizableLinear(in_features=1024, out_features=1024, bias=True)
        )
        (ln_1): LayerNorm((1024,), eps=1e-05, elementwise_affine=True)
        (mlp): Sequential(
          (c_fc): Linear(in_features=1024, out_features=4096, bias=True)
          (gelu): QuickGELU()
          (c_proj): Linear(in_features=4096, out_features=1024, bias=True)
        )
        (ln_2): LayerNorm((1024,), eps=1e-05, elementwise_affine=True)
      )
      (23): ResidualAttentionBlock(
        (attn): MultiheadAttention(
          (out_proj): NonDynamicallyQuantizableLinear(in_features=1024, out_features=1024, bias=True)
        )
        (ln_1): LayerNorm((1024,), eps=1e-05, elementwise_affine=True)
        (mlp): Sequential(
          (c_fc): Linear(in_features=1024, out_features=4096, bias=True)
          (gelu): QuickGELU()
          (c_proj): Linear(in_features=4096, out_features=1024, bias=True)
        )
        (ln_2): LayerNorm((1024,), eps=1e-05, elementwise_affine=True)
      )
    )
  )
  (ln_post): LayerNorm((1024,), eps=1e-05, elementwise_affine=True)
)
VisionTransformer(
  (conv1): Conv2d(3, 1024, kernel_size=(14, 14), stride=(14, 14), bias=False)
  (ln_pre): LayerNorm((1024,), eps=1e-05, elementwise_affine=True)
  (transformer): Transformer(
    (resblocks): Sequential(
      (0): ResidualAttentionBlock(
        (attn): MultiheadAttention(
          (out_proj): NonDynamicallyQuantizableLinear(in_features=1024, out_features=1024, bias=True)
        )
        (ln_1): LayerNorm((1024,), eps=1e-05, elementwise_affine=True)
        (mlp): Sequential(
          (c_fc): Linear(in_features=1024, out_features=4096, bias=True)
          (gelu): QuickGELU()
          (c_proj): Linear(in_features=4096, out_features=1024, bias=True)
        )
        (ln_2): LayerNorm((1024,), eps=1e-05, elementwise_affine=True)
      )
      (1): ResidualAttentionBlock(
        (attn): MultiheadAttention(
          (out_proj): NonDynamicallyQuantizableLinear(in_features=1024, out_features=1024, bias=True)
        )
        (ln_1): LayerNorm((1024,), eps=1e-05, elementwise_affine=True)
        (mlp): Sequential(
          (c_fc): Linear(in_features=1024, out_features=4096, bias=True)
          (gelu): QuickGELU()
          (c_proj): Linear(in_features=4096, out_features=1024, bias=True)
        )
        (ln_2): LayerNorm((1024,), eps=1e-05, elementwise_affine=True)
      )
      (2): ResidualAttentionBlock(
        (attn): MultiheadAttention(
          (out_proj): NonDynamicallyQuantizableLinear(in_features=1024, out_features=1024, bias=True)
        )
        (ln_1): LayerNorm((1024,), eps=1e-05, elementwise_affine=True)
        (mlp): Sequential(
          (c_fc): Linear(in_features=1024, out_features=4096, bias=True)
          (gelu): QuickGELU()
          (c_proj): Linear(in_features=4096, out_features=1024, bias=True)
        )
        (ln_2): LayerNorm((1024,), eps=1e-05, elementwise_affine=True)
      )
      (3): ResidualAttentionBlock(
        (attn): MultiheadAttention(
          (out_proj): NonDynamicallyQuantizableLinear(in_features=1024, out_features=1024, bias=True)
        )
        (ln_1): LayerNorm((1024,), eps=1e-05, elementwise_affine=True)
        (mlp): Sequential(
          (c_fc): Linear(in_features=1024, out_features=4096, bias=True)
          (gelu): QuickGELU()
          (c_proj): Linear(in_features=4096, out_features=1024, bias=True)
        )
        (ln_2): LayerNorm((1024,), eps=1e-05, elementwise_affine=True)
      )
      (4): ResidualAttentionBlock(
        (attn): MultiheadAttention(
          (out_proj): NonDynamicallyQuantizableLinear(in_features=1024, out_features=1024, bias=True)
        )
        (ln_1): LayerNorm((1024,), eps=1e-05, elementwise_affine=True)
        (mlp): Sequential(
          (c_fc): Linear(in_features=1024, out_features=4096, bias=True)
          (gelu): QuickGELU()
          (c_proj): Linear(in_features=4096, out_features=1024, bias=True)
        )
        (ln_2): LayerNorm((1024,), eps=1e-05, elementwise_affine=True)
      )
      (5): ResidualAttentionBlock(
        (attn): MultiheadAttention(
          (out_proj): NonDynamicallyQuantizableLinear(in_features=1024, out_features=1024, bias=True)
        )
        (ln_1): LayerNorm((1024,), eps=1e-05, elementwise_affine=True)
        (mlp): Sequential(
          (c_fc): Linear(in_features=1024, out_features=4096, bias=True)
          (gelu): QuickGELU()
          (c_proj): Linear(in_features=4096, out_features=1024, bias=True)
        )
        (ln_2): LayerNorm((1024,), eps=1e-05, elementwise_affine=True)
      )
      (6): ResidualAttentionBlock(
        (attn): MultiheadAttention(
          (out_proj): NonDynamicallyQuantizableLinear(in_features=1024, out_features=1024, bias=True)
        )
        (ln_1): LayerNorm((1024,), eps=1e-05, elementwise_affine=True)
        (mlp): Sequential(
          (c_fc): Linear(in_features=1024, out_features=4096, bias=True)
          (gelu): QuickGELU()
          (c_proj): Linear(in_features=4096, out_features=1024, bias=True)
        )
        (ln_2): LayerNorm((1024,), eps=1e-05, elementwise_affine=True)
      )
      (7): ResidualAttentionBlock(
        (attn): MultiheadAttention(
          (out_proj): NonDynamicallyQuantizableLinear(in_features=1024, out_features=1024, bias=True)
        )
        (ln_1): LayerNorm((1024,), eps=1e-05, elementwise_affine=True)
        (mlp): Sequential(
          (c_fc): Linear(in_features=1024, out_features=4096, bias=True)
          (gelu): QuickGELU()
          (c_proj): Linear(in_features=4096, out_features=1024, bias=True)
        )
        (ln_2): LayerNorm((1024,), eps=1e-05, elementwise_affine=True)
      )
      (8): ResidualAttentionBlock(
        (attn): MultiheadAttention(
          (out_proj): NonDynamicallyQuantizableLinear(in_features=1024, out_features=1024, bias=True)
        )
        (ln_1): LayerNorm((1024,), eps=1e-05, elementwise_affine=True)
        (mlp): Sequential(
          (c_fc): Linear(in_features=1024, out_features=4096, bias=True)
          (gelu): QuickGELU()
          (c_proj): Linear(in_features=4096, out_features=1024, bias=True)
        )
        (ln_2): LayerNorm((1024,), eps=1e-05, elementwise_affine=True)
      )
      (9): ResidualAttentionBlock(
        (attn): MultiheadAttention(
          (out_proj): NonDynamicallyQuantizableLinear(in_features=1024, out_features=1024, bias=True)
        )
        (ln_1): LayerNorm((1024,), eps=1e-05, elementwise_affine=True)
        (mlp): Sequential(
          (c_fc): Linear(in_features=1024, out_features=4096, bias=True)
          (gelu): QuickGELU()
          (c_proj): Linear(in_features=4096, out_features=1024, bias=True)
        )
        (ln_2): LayerNorm((1024,), eps=1e-05, elementwise_affine=True)
      )
      (10): ResidualAttentionBlock(
        (attn): MultiheadAttention(
          (out_proj): NonDynamicallyQuantizableLinear(in_features=1024, out_features=1024, bias=True)
        )
        (ln_1): LayerNorm((1024,), eps=1e-05, elementwise_affine=True)
        (mlp): Sequential(
          (c_fc): Linear(in_features=1024, out_features=4096, bias=True)
          (gelu): QuickGELU()
          (c_proj): Linear(in_features=4096, out_features=1024, bias=True)
        )
        (ln_2): LayerNorm((1024,), eps=1e-05, elementwise_affine=True)
      )
      (11): ResidualAttentionBlock(
        (attn): MultiheadAttention(
          (out_proj): NonDynamicallyQuantizableLinear(in_features=1024, out_features=1024, bias=True)
        )
        (ln_1): LayerNorm((1024,), eps=1e-05, elementwise_affine=True)
        (mlp): Sequential(
          (c_fc): Linear(in_features=1024, out_features=4096, bias=True)
          (gelu): QuickGELU()
          (c_proj): Linear(in_features=4096, out_features=1024, bias=True)
        )
        (ln_2): LayerNorm((1024,), eps=1e-05, elementwise_affine=True)
      )
      (12): ResidualAttentionBlock(
        (attn): MultiheadAttention(
          (out_proj): NonDynamicallyQuantizableLinear(in_features=1024, out_features=1024, bias=True)
        )
        (ln_1): LayerNorm((1024,), eps=1e-05, elementwise_affine=True)
        (mlp): Sequential(
          (c_fc): Linear(in_features=1024, out_features=4096, bias=True)
          (gelu): QuickGELU()
          (c_proj): Linear(in_features=4096, out_features=1024, bias=True)
        )
        (ln_2): LayerNorm((1024,), eps=1e-05, elementwise_affine=True)
      )
      (13): ResidualAttentionBlock(
        (attn): MultiheadAttention(
          (out_proj): NonDynamicallyQuantizableLinear(in_features=1024, out_features=1024, bias=True)
        )
        (ln_1): LayerNorm((1024,), eps=1e-05, elementwise_affine=True)
        (mlp): Sequential(
          (c_fc): Linear(in_features=1024, out_features=4096, bias=True)
          (gelu): QuickGELU()
          (c_proj): Linear(in_features=4096, out_features=1024, bias=True)
        )
        (ln_2): LayerNorm((1024,), eps=1e-05, elementwise_affine=True)
      )
      (14): ResidualAttentionBlock(
        (attn): MultiheadAttention(
          (out_proj): NonDynamicallyQuantizableLinear(in_features=1024, out_features=1024, bias=True)
        )
        (ln_1): LayerNorm((1024,), eps=1e-05, elementwise_affine=True)
        (mlp): Sequential(
          (c_fc): Linear(in_features=1024, out_features=4096, bias=True)
          (gelu): QuickGELU()
          (c_proj): Linear(in_features=4096, out_features=1024, bias=True)
        )
        (ln_2): LayerNorm((1024,), eps=1e-05, elementwise_affine=True)
      )
      (15): ResidualAttentionBlock(
        (attn): MultiheadAttention(
          (out_proj): NonDynamicallyQuantizableLinear(in_features=1024, out_features=1024, bias=True)
        )
        (ln_1): LayerNorm((1024,), eps=1e-05, elementwise_affine=True)
        (mlp): Sequential(
          (c_fc): Linear(in_features=1024, out_features=4096, bias=True)
          (gelu): QuickGELU()
          (c_proj): Linear(in_features=4096, out_features=1024, bias=True)
        )
        (ln_2): LayerNorm((1024,), eps=1e-05, elementwise_affine=True)
      )
      (16): ResidualAttentionBlock(
        (attn): MultiheadAttention(
          (out_proj): NonDynamicallyQuantizableLinear(in_features=1024, out_features=1024, bias=True)
        )
        (ln_1): LayerNorm((1024,), eps=1e-05, elementwise_affine=True)
        (mlp): Sequential(
          (c_fc): Linear(in_features=1024, out_features=4096, bias=True)
          (gelu): QuickGELU()
          (c_proj): Linear(in_features=4096, out_features=1024, bias=True)
        )
        (ln_2): LayerNorm((1024,), eps=1e-05, elementwise_affine=True)
      )
      (17): ResidualAttentionBlock(
        (attn): MultiheadAttention(
          (out_proj): NonDynamicallyQuantizableLinear(in_features=1024, out_features=1024, bias=True)
        )
        (ln_1): LayerNorm((1024,), eps=1e-05, elementwise_affine=True)
        (mlp): Sequential(
          (c_fc): Linear(in_features=1024, out_features=4096, bias=True)
          (gelu): QuickGELU()
          (c_proj): Linear(in_features=4096, out_features=1024, bias=True)
        )
        (ln_2): LayerNorm((1024,), eps=1e-05, elementwise_affine=True)
      )
      (18): ResidualAttentionBlock(
        (attn): MultiheadAttention(
          (out_proj): NonDynamicallyQuantizableLinear(in_features=1024, out_features=1024, bias=True)
        )
        (ln_1): LayerNorm((1024,), eps=1e-05, elementwise_affine=True)
        (mlp): Sequential(
          (c_fc): Linear(in_features=1024, out_features=4096, bias=True)
          (gelu): QuickGELU()
          (c_proj): Linear(in_features=4096, out_features=1024, bias=True)
        )
        (ln_2): LayerNorm((1024,), eps=1e-05, elementwise_affine=True)
      )
      (19): ResidualAttentionBlock(
        (attn): MultiheadAttention(
          (out_proj): NonDynamicallyQuantizableLinear(in_features=1024, out_features=1024, bias=True)
        )
        (ln_1): LayerNorm((1024,), eps=1e-05, elementwise_affine=True)
        (mlp): Sequential(
          (c_fc): Linear(in_features=1024, out_features=4096, bias=True)
          (gelu): QuickGELU()
          (c_proj): Linear(in_features=4096, out_features=1024, bias=True)
        )
        (ln_2): LayerNorm((1024,), eps=1e-05, elementwise_affine=True)
      )
      (20): ResidualAttentionBlock(
        (attn): MultiheadAttention(
          (out_proj): NonDynamicallyQuantizableLinear(in_features=1024, out_features=1024, bias=True)
        )
        (ln_1): LayerNorm((1024,), eps=1e-05, elementwise_affine=True)
        (mlp): Sequential(
          (c_fc): Linear(in_features=1024, out_features=4096, bias=True)
          (gelu): QuickGELU()
          (c_proj): Linear(in_features=4096, out_features=1024, bias=True)
        )
        (ln_2): LayerNorm((1024,), eps=1e-05, elementwise_affine=True)
      )
      (21): ResidualAttentionBlock(
        (attn): MultiheadAttention(
          (out_proj): NonDynamicallyQuantizableLinear(in_features=1024, out_features=1024, bias=True)
        )
        (ln_1): LayerNorm((1024,), eps=1e-05, elementwise_affine=True)
        (mlp): Sequential(
          (c_fc): Linear(in_features=1024, out_features=4096, bias=True)
          (gelu): QuickGELU()
          (c_proj): Linear(in_features=4096, out_features=1024, bias=True)
        )
        (ln_2): LayerNorm((1024,), eps=1e-05, elementwise_affine=True)
      )
      (22): ResidualAttentionBlock(
        (attn): MultiheadAttention(
          (out_proj): NonDynamicallyQuantizableLinear(in_features=1024, out_features=1024, bias=True)
        )
        (ln_1): LayerNorm((1024,), eps=1e-05, elementwise_affine=True)
        (mlp): Sequential(
          (c_fc): Linear(in_features=1024, out_features=4096, bias=True)
          (gelu): QuickGELU()
          (c_proj): Linear(in_features=4096, out_features=1024, bias=True)
        )
        (ln_2): LayerNorm((1024,), eps=1e-05, elementwise_affine=True)
      )
      (23): ResidualAttentionBlock(
        (attn): MultiheadAttention(
          (out_proj): NonDynamicallyQuantizableLinear(in_features=1024, out_features=1024, bias=True)
        )
        (ln_1): LayerNorm((1024,), eps=1e-05, elementwise_affine=True)
        (mlp): Sequential(
          (c_fc): Linear(in_features=1024, out_features=4096, bias=True)
          (gelu): QuickGELU()
          (c_proj): Linear(in_features=4096, out_features=1024, bias=True)
        )
        (ln_2): LayerNorm((1024,), eps=1e-05, elementwise_affine=True)
      )
    )
  )
  (ln_post): LayerNorm((1024,), eps=1e-05, elementwise_affine=True)
)
*** TypeError: 'VisionTransformer' object is not subscriptable
*** TypeError: 'VisionTransformer' object is not subscriptable
*** SyntaxError: invalid syntax
Traceback (most recent call last):
  File "/shared/nas2/jk100/partonomy_private/src/models/PLUM/plum_train_ds.py", line 908, in <module>
    main(sys.argv[1:])
  File "/shared/nas2/jk100/partonomy_private/src/models/PLUM/plum_train_ds.py", line 284, in main
…
