…
tower.transformer.resblocks.3.mlp.c_fc.bias', 'model.vision_tower.visual.transformer.resblocks.10.ln_1.weight', 'model.vision_tower.transformer.resblocks.6.attn.in_proj_weight', 'model.vision_tower.visual.transformer.resblocks.5.mlp.c_fc.bias']
You should probably TRAIN this model on a down-stream task to be able to use it for predictions and inference.
> /shared/nas2/jk100/partonomy_private/src/models/PLUM/model/llava/model/llava_arch.py(60)initialize_vision_modules()
-> self.config.use_mm_proj = True
*** AttributeError: 'CLIP' object has no attribute 'hidden_size'
VisionTransformer(
  (conv1): Conv2d(3, 1024, kernel_size=(14, 14), stride=(14, 14), bias=False)
  (ln_pre): LayerNorm((1024,), eps=1e-05, elementwise_affine=True)
  (transformer): Transformer(
    (resblocks): Sequential(
      (0): ResidualAttentionBlock(
        (attn): MultiheadAttention(
          (out_proj): NonDynamicallyQuantizableLinear(in_features=1024, out_features=1024, bias=True)
        )
        (ln_1): LayerNorm((1024,), eps=1e-05, elementwise_affine=True)
        (mlp): Sequential(
          (c_fc): Linear(in_features=1024, out_features=4096, bias=True)
          (gelu): QuickGELU()
          (c_proj): Linear(in_features=4096, out_features=1024, bias=True)
        )
        (ln_2): LayerNorm((1024,), eps=1e-05, elementwise_affine=True)
      )
      (1): ResidualAttentionBlock(
        (attn): MultiheadAttention(
          (out_proj): NonDynamicallyQuantizableLinear(in_features=1024, out_features=1024, bias=True)
        )
        (ln_1): LayerNorm((1024,), eps=1e-05, elementwise_affine=True)
        (mlp): Sequential(
          (c_fc): Linear(in_features=1024, out_features=4096, bias=True)
          (gelu): QuickGELU()
          (c_proj): Linear(in_features=4096, out_features=1024, bias=True)
        )
        (ln_2): LayerNorm((1024,), eps=1e-05, elementwise_affine=True)
      )
      (2): ResidualAttentionBlock(
        (attn): MultiheadAttention(
          (out_proj): NonDynamicallyQuantizableLinear(in_features=1024, out_features=1024, bias=True)
        )
        (ln_1): LayerNorm((1024,), eps=1e-05, elementwise_affine=True)
        (mlp): Sequential(
          (c_fc): Linear(in_features=1024, out_features=4096, bias=True)
          (gelu): QuickGELU()
          (c_proj): Linear(in_features=4096, out_features=1024, bias=True)
        )
        (ln_2): LayerNorm((1024,), eps=1e-05, elementwise_affine=True)
      )
      (3): ResidualAttentionBlock(
        (attn): MultiheadAttention(
          (out_proj): NonDynamicallyQuantizableLinear(in_features=1024, out_features=1024, bias=True)
        )
        (ln_1): LayerNorm((1024,), eps=1e-05, elementwise_affine=True)
        (mlp): Sequential(
          (c_fc): Linear(in_features=1024, out_features=4096, bias=True)
          (gelu): QuickGELU()
          (c_proj): Linear(in_features=4096, out_features=1024, bias=True)
        )
        (ln_2): LayerNorm((1024,), eps=1e-05, elementwise_affine=True)
      )
      (4): ResidualAttentionBlock(
        (attn): MultiheadAttention(
          (out_proj): NonDynamicallyQuantizableLinear(in_features=1024, out_features=1024, bias=True)
        )
        (ln_1): LayerNorm((1024,), eps=1e-05, elementwise_affine=True)
        (mlp): Sequential(
          (c_fc): Linear(in_features=1024, out_features=4096, bias=True)
          (gelu): QuickGELU()
          (c_proj): Linear(in_features=4096, out_features=1024, bias=True)
        )
        (ln_2): LayerNorm((1024,), eps=1e-05, elementwise_affine=True)
      )
      (5): ResidualAttentionBlock(
        (attn): MultiheadAttention(
          (out_proj): NonDynamicallyQuantizableLinear(in_features=1024, out_features=1024, bias=True)
        )
        (ln_1): LayerNorm((1024,), eps=1e-05, elementwise_affine=True)
        (mlp): Sequential(
          (c_fc): Linear(in_features=1024, out_features=4096, bias=True)
          (gelu): QuickGELU()
          (c_proj): Linear(in_features=4096, out_features=1024, bias=True)
        )
        (ln_2): LayerNorm((1024,), eps=1e-05, elementwise_affine=True)
      )
      (6): ResidualAttentionBlock(
        (attn): MultiheadAttention(
          (out_proj): NonDynamicallyQuantizableLinear(in_features=1024, out_features=1024, bias=True)
        )
        (ln_1): LayerNorm((1024,), eps=1e-05, elementwise_affine=True)
        (mlp): Sequential(
          (c_fc): Linear(in_features=1024, out_features=4096, bias=True)
          (gelu): QuickGELU()
          (c_proj): Linear(in_features=4096, out_features=1024, bias=True)
        )
        (ln_2): LayerNorm((1024,), eps=1e-05, elementwise_affine=True)
      )
      (7): ResidualAttentionBlock(
        (attn): MultiheadAttention(
          (out_proj): NonDynamicallyQuantizableLinear(in_features=1024, out_features=1024, bias=True)
        )
        (ln_1): LayerNorm((1024,), eps=1e-05, elementwise_affine=True)
        (mlp): Sequential(
          (c_fc): Linear(in_features=1024, out_features=4096, bias=True)
          (gelu): QuickGELU()
          (c_proj): Linear(in_features=4096, out_features=1024, bias=True)
        )
        (ln_2): LayerNorm((1024,), eps=1e-05, elementwise_affine=True)
      )
      (8): ResidualAttentionBlock(
        (attn): MultiheadAttention(
          (out_proj): NonDynamicallyQuantizableLinear(in_features=1024, out_features=1024, bias=True)
        )
        (ln_1): LayerNorm((1024,), eps=1e-05, elementwise_affine=True)
        (mlp): Sequential(
          (c_fc): Linear(in_features=1024, out_features=4096, bias=True)
          (gelu): QuickGELU()
          (c_proj): Linear(in_features=4096, out_features=1024, bias=True)
        )
        (ln_2): LayerNorm((1024,), eps=1e-05, elementwise_affine=True)
      )
      (9): ResidualAttentionBlock(
        (attn): MultiheadAttention(
          (out_proj): NonDynamicallyQuantizableLinear(in_features=1024, out_features=1024, bias=True)
        )
        (ln_1): LayerNorm((1024,), eps=1e-05, elementwise_affine=True)
        (mlp): Sequential(
          (c_fc): Linear(in_features=1024, out_features=4096, bias=True)
          (gelu): QuickGELU()
          (c_proj): Linear(in_features=4096, out_features=1024, bias=True)
        )
        (ln_2): LayerNorm((1024,), eps=1e-05, elementwise_affine=True)
      )
      (10): ResidualAttentionBlock(
        (attn): MultiheadAttention(
          (out_proj): NonDynamicallyQuantizableLinear(in_features=1024, out_features=1024, bias=True)
        )
        (ln_1): LayerNorm((1024,), eps=1e-05, elementwise_affine=True)
        (mlp): Sequential(
          (c_fc): Linear(in_features=1024, out_features=4096, bias=True)
          (gelu): QuickGELU()
          (c_proj): Linear(in_features=4096, out_features=1024, bias=True)
        )
        (ln_2): LayerNorm((1024,), eps=1e-05, elementwise_affine=True)
      )
      (11): ResidualAttentionBlock(
        (attn): MultiheadAttention(
          (out_proj): NonDynamicallyQuantizableLinear(in_features=1024, out_features=1024, bias=True)
        )
        (ln_1): LayerNorm((1024,), eps=1e-05, elementwise_affine=True)
        (mlp): Sequential(
          (c_fc): Linear(in_features=1024, out_features=4096, bias=True)
          (gelu): QuickGELU()
          (c_proj): Linear(in_features=4096, out_features=1024, bias=True)
        )
        (ln_2): LayerNorm((1024,), eps=1e-05, elementwise_affine=True)
      )
      (12): ResidualAttentionBlock(
        (attn): MultiheadAttention(
          (out_proj): NonDynamicallyQuantizableLinear(in_features=1024, out_features=1024, bias=True)
        )
        (ln_1): LayerNorm((1024,), eps=1e-05, elementwise_affine=True)
        (mlp): Sequential(
          (c_fc): Linear(in_features=1024, out_features=4096, bias=True)
          (gelu): QuickGELU()
          (c_proj): Linear(in_features=4096, out_features=1024, bias=True)
        )
        (ln_2): LayerNorm((1024,), eps=1e-05, elementwise_affine=True)
      )
      (13): ResidualAttentionBlock(
        (attn): MultiheadAttention(
          (out_proj): NonDynamicallyQuantizableLinear(in_features=1024, out_features=1024, bias=True)
        )
        (ln_1): LayerNorm((1024,), eps=1e-05, elementwise_affine=True)
        (mlp): Sequential(
          (c_fc): Linear(in_features=1024, out_features=4096, bias=True)
          (gelu): QuickGELU()
          (c_proj): Linear(in_features=4096, out_features=1024, bias=True)
        )
        (ln_2): LayerNorm((1024,), eps=1e-05, elementwise_affine=True)
      )
      (14): ResidualAttentionBlock(
        (attn): MultiheadAttention(
          (out_proj): NonDynamicallyQuantizableLinear(in_features=1024, out_features=1024, bias=True)
        )
        (ln_1): LayerNorm((1024,), eps=1e-05, elementwise_affine=True)
        (mlp): Sequential(
          (c_fc): Linear(in_features=1024, out_features=4096, bias=True)
          (gelu): QuickGELU()
          (c_proj): Linear(in_features=4096, out_features=1024, bias=True)
        )
        (ln_2): LayerNorm((1024,), eps=1e-05, elementwise_affine=True)
      )
      (15): ResidualAttentionBlock(
        (attn): MultiheadAttention(
          (out_proj): NonDynamicallyQuantizableLinear(in_features=1024, out_features=1024, bias=True)
        )
        (ln_1): LayerNorm((1024,), eps=1e-05, elementwise_affine=True)
        (mlp): Sequential(
          (c_fc): Linear(in_features=1024, out_features=4096, bias=True)
          (gelu): QuickGELU()
          (c_proj): Linear(in_features=4096, out_features=1024, bias=True)
        )
        (ln_2): LayerNorm((1024,), eps=1e-05, elementwise_affine=True)
      )
      (16): ResidualAttentionBlock(
        (attn): MultiheadAttention(
          (out_proj): NonDynamicallyQuantizableLinear(in_features=1024, out_features=1024, bias=True)
        )
        (ln_1): LayerNorm((1024,), eps=1e-05, elementwise_affine=True)
        (mlp): Sequential(
          (c_fc): Linear(in_features=1024, out_features=4096, bias=True)
          (gelu): QuickGELU()
          (c_proj): Linear(in_features=4096, out_features=1024, bias=True)
        )
        (ln_2): LayerNorm((1024,), eps=1e-05, elementwise_affine=True)
      )
      (17): ResidualAttentionBlock(
        (attn): MultiheadAttention(
          (out_proj): NonDynamicallyQuantizableLinear(in_features=1024, out_features=1024, bias=True)
        )
        (ln_1): LayerNorm((1024,), eps=1e-05, elementwise_affine=True)
        (mlp): Sequential(
          (c_fc): Linear(in_features=1024, out_features=4096, bias=True)
          (gelu): QuickGELU()
          (c_proj): Linear(in_features=4096, out_features=1024, bias=True)
        )
        (ln_2): LayerNorm((1024,), eps=1e-05, elementwise_affine=True)
      )
      (18): ResidualAttentionBlock(
        (attn): MultiheadAttention(
          (out_proj): NonDynamicallyQuantizableLinear(in_features=1024, out_features=1024, bias=True)
        )
        (ln_1): LayerNorm((1024,), eps=1e-05, elementwise_affine=True)
        (mlp): Sequential(
          (c_fc): Linear(in_features=1024, out_features=4096, bias=True)
          (gelu): QuickGELU()
          (c_proj): Linear(in_features=4096, out_features=1024, bias=True)
        )
        (ln_2): LayerNorm((1024,), eps=1e-05, elementwise_affine=True)
      )
      (19): ResidualAttentionBlock(
        (attn): MultiheadAttention(
          (out_proj): NonDynamicallyQuantizableLinear(in_features=1024, out_features=1024, bias=True)
        )
        (ln_1): LayerNorm((1024,), eps=1e-05, elementwise_affine=True)
        (mlp): Sequential(
          (c_fc): Linear(in_features=1024, out_features=4096, bias=True)
          (gelu): QuickGELU()
          (c_proj): Linear(in_features=4096, out_features=1024, bias=True)
        )
        (ln_2): LayerNorm((1024,), eps=1e-05, elementwise_affine=True)
      )
      (20): ResidualAttentionBlock(
        (attn): MultiheadAttention(
          (out_proj): NonDynamicallyQuantizableLinear(in_features=1024, out_features=1024, bias=True)
        )
        (ln_1): LayerNorm((1024,), eps=1e-05, elementwise_affine=True)
        (mlp): Sequential(
          (c_fc): Linear(in_features=1024, out_features=4096, bias=True)
          (gelu): QuickGELU()
          (c_proj): Linear(in_features=4096, out_features=1024, bias=True)
        )
        (ln_2): LayerNorm((1024,), eps=1e-05, elementwise_affine=True)
      )
      (21): ResidualAttentionBlock(
        (attn): MultiheadAttention(
          (out_proj): NonDynamicallyQuantizableLinear(in_features=1024, out_features=1024, bias=True)
        )
        (ln_1): LayerNorm((1024,), eps=1e-05, elementwise_affine=True)
        (mlp): Sequential(
          (c_fc): Linear(in_features=1024, out_features=4096, bias=True)
          (gelu): QuickGELU()
          (c_proj): Linear(in_features=4096, out_features=1024, bias=True)
        )
        (ln_2): LayerNorm((1024,), eps=1e-05, elementwise_affine=True)
      )
      (22): ResidualAttentionBlock(
        (attn): MultiheadAttention(
          (out_proj): NonDynamicallyQuantizableLinear(in_features=1024, out_features=1024, bias=True)
        )
        (ln_1): LayerNorm((1024,), eps=1e-05, elementwise_affine=True)
        (mlp): Sequential(
          (c_fc): Linear(in_features=1024, out_features=4096, bias=True)
          (gelu): QuickGELU()
          (c_proj): Linear(in_features=4096, out_features=1024, bias=True)
        )
        (ln_2): LayerNorm((1024,), eps=1e-05, elementwise_affine=True)
      )
      (23): ResidualAttentionBlock(
        (attn): MultiheadAttention(
          (out_proj): NonDynamicallyQuantizableLinear(in_features=1024, out_features=1024, bias=True)
        )
        (ln_1): LayerNorm((1024,), eps=1e-05, elementwise_affine=True)
        (mlp): Sequential(
          (c_fc): Linear(in_features=1024, out_features=4096, bias=True)
          (gelu): QuickGELU()
          (c_proj): Linear(in_features=4096, out_features=1024, bias=True)
        )
        (ln_2): LayerNorm((1024,), eps=1e-05, elementwise_affine=True)
      )
    )
  )
  (ln_post): LayerNorm((1024,), eps=1e-05, elementwise_affine=True)
)
*** AttributeError: 'Parameter' object has no attribute 'wiehgt'
*** AttributeError: 'Parameter' object has no attribute 'weight'
Parameter containing:
tensor([[ 0.0224, -0.0139, -0.0072,  ..., -0.0058, -0.0078,  0.0139],
        [ 0.0186,  0.0084,  0.0400,  ..., -0.0149, -0.0241, -0.0003],
        [ 0.0075, -0.0007,  0.0195,  ..., -0.0062, -0.0083,  0.0156],
…
