…
>> (train) Auto-resume from:  ./runs/pixar-13b_kld_0.1_focal_tversky_8_pixar_ft/pixar-13b_kld_0.1_focal_tversky_8_pixar_ft_bidirbio_2048_maxlen512_epochs2_bidir_bio_feedback_loop_train_prompt_enc_pixar_oven_infoseek_aokvqa_okvqa_textvqa_webqa_srates_1_1_1_1_1_1_ckpt_model
>> (train) resume exists:  False
> /shared/nas2/jk100/partonomy_private/src/models/PLUM/pixar_train_ds.py(754)train()
-> output_dict = model(**input_dict)
*** KeyError: 0
0
DeepSpeedEngine(
  (module): PeftModelForCausalLM(
    (base_model): LoraModel(
      (model): PLUMForCausalLM(
        (model): PlumModel(
          (embed_tokens): Embedding(32002, 5120)
          (layers): ModuleList(
            (0-39): 40 x LlamaDecoderLayer(
              (self_attn): LlamaAttention(
                (q_proj): Linear(
                  in_features=5120, out_features=5120, bias=False
                  (lora_dropout): ModuleDict(
                    (default): Dropout(p=0.05, inplace=False)
                  )
                  (lora_A): ModuleDict(
                    (default): Linear(in_features=5120, out_features=8, bias=False)
                  )
                  (lora_B): ModuleDict(
                    (default): Linear(in_features=8, out_features=5120, bias=False)
                  )
                  (lora_embedding_A): ParameterDict()
                  (lora_embedding_B): ParameterDict()
                )
                (k_proj): Linear(in_features=5120, out_features=5120, bias=False)
                (v_proj): Linear(
                  in_features=5120, out_features=5120, bias=False
                  (lora_dropout): ModuleDict(
                    (default): Dropout(p=0.05, inplace=False)
                  )
                  (lora_A): ModuleDict(
                    (default): Linear(in_features=5120, out_features=8, bias=False)
                  )
                  (lora_B): ModuleDict(
                    (default): Linear(in_features=8, out_features=5120, bias=False)
                  )
                  (lora_embedding_A): ParameterDict()
                  (lora_embedding_B): ParameterDict()
                )
                (o_proj): Linear(in_features=5120, out_features=5120, bias=False)
                (rotary_emb): LlamaRotaryEmbedding()
              )
              (mlp): LlamaMLP(
                (gate_proj): Linear(in_features=5120, out_features=13824, bias=False)
                (up_proj): Linear(in_features=5120, out_features=13824, bias=False)
                (down_proj): Linear(in_features=13824, out_features=5120, bias=False)
                (act_fn): SiLUActivation()
              )
              (input_layernorm): LlamaRMSNorm()
              (post_attention_layernorm): LlamaRMSNorm()
            )
          )
          (norm): LlamaRMSNorm()
          (vision_tower): CLIPVisionTower(
            (vision_tower): CLIPVisionModel(
              (vision_model): CLIPVisionTransformer(
                (embeddings): CLIPVisionEmbeddings(
                  (patch_embedding): Conv2d(3, 1024, kernel_size=(14, 14), stride=(14, 14), bias=False)
                  (position_embedding): Embedding(257, 1024)
                )
                (pre_layrnorm): LayerNorm((1024,), eps=1e-05, elementwise_affine=True)
                (encoder): CLIPEncoder(
                  (layers): ModuleList(
                    (0-23): 24 x CLIPEncoderLayer(
                      (self_attn): CLIPAttention(
                        (k_proj): Linear(in_features=1024, out_features=1024, bias=True)
                        (v_proj): Linear(in_features=1024, out_features=1024, bias=True)
                        (q_proj): Linear(in_features=1024, out_features=1024, bias=True)
                        (out_proj): Linear(in_features=1024, out_features=1024, bias=True)
                      )
                      (layer_norm1): LayerNorm((1024,), eps=1e-05, elementwise_affine=True)
                      (mlp): CLIPMLP(
                        (activation_fn): QuickGELUActivation()
                        (fc1): Linear(in_features=1024, out_features=4096, bias=True)
                        (fc2): Linear(in_features=4096, out_features=1024, bias=True)
                      )
                      (layer_norm2): LayerNorm((1024,), eps=1e-05, elementwise_affine=True)
                    )
                  )
                )
                (post_layernorm): LayerNorm((1024,), eps=1e-05, elementwise_affine=True)
              )
            )
          )
          (mm_projector): Linear(in_features=1024, out_features=5120, bias=True)
          (visual_model): Sam(
            (image_encoder): ImageEncoderViT(
              (patch_embed): PatchEmbed(
                (proj): Conv2d(3, 1280, kernel_size=(16, 16), stride=(16, 16))
              )
              (blocks): ModuleList(
                (0-31): 32 x Block(
                  (norm1): LayerNorm((1280,), eps=1e-06, elementwise_affine=True)
                  (attn): Attention(
                    (qkv): Linear(in_features=1280, out_features=3840, bias=True)
                    (proj): Linear(in_features=1280, out_features=1280, bias=True)
                  )
                  (norm2): LayerNorm((1280,), eps=1e-06, elementwise_affine=True)
                  (mlp): MLPBlock(
                    (lin1): Linear(in_features=1280, out_features=5120, bias=True)
                    (lin2): Linear(in_features=5120, out_features=1280, bias=True)
                    (act): GELU(approximate='none')
                  )
                )
              )
              (neck): Sequential(
                (0): Conv2d(1280, 256, kernel_size=(1, 1), stride=(1, 1), bias=False)
                (1): LayerNorm2d()
                (2): Conv2d(256, 256, kernel_size=(3, 3), stride=(1, 1), padding=(1, 1), bias=False)
                (3): LayerNorm2d()
              )
            )
            (prompt_encoder): PromptEncoder(
              (pe_layer): PositionEmbeddingRandom()
              (point_embeddings): ModuleList(
                (0-3): 4 x Embedding(1, 256)
              )
              (not_a_point_embed): Embedding(1, 256)
              (mask_downscaling): Sequential(
                (0): Conv2d(1, 4, kernel_size=(2, 2), stride=(2, 2))
                (1): LayerNorm2d()
                (2): GELU(approximate='none')
                (3): Conv2d(4, 16, kernel_size=(2, 2), stride=(2, 2))
                (4): LayerNorm2d()
                (5): GELU(approximate='none')
                (6): Conv2d(16, 256, kernel_size=(1, 1), stride=(1, 1))
              )
              (no_mask_embed): Embedding(1, 256)
            )
            (mask_decoder): MaskDecoder(
              (transformer): TwoWayTransformer(
                (layers): ModuleList(
                  (0-1): 2 x TwoWayAttentionBlock(
                    (self_attn): Attention(
                      (q_proj): Linear(in_features=256, out_features=256, bias=True)
                      (k_proj): Linear(in_features=256, out_features=256, bias=True)
                      (v_proj): Linear(in_features=256, out_features=256, bias=True)
                      (out_proj): Linear(in_features=256, out_features=256, bias=True)
                    )
                    (norm1): LayerNorm((256,), eps=1e-05, elementwise_affine=True)
                    (cross_attn_token_to_image): Attention(
                      (q_proj): Linear(in_features=256, out_features=128, bias=True)
                      (k_proj): Linear(in_features=256, out_features=128, bias=True)
                      (v_proj): Linear(in_features=256, out_features=128, bias=True)
                      (out_proj): Linear(in_features=128, out_features=256, bias=True)
                    )
                    (norm2): LayerNorm((256,), eps=1e-05, elementwise_affine=True)
                    (mlp): MLPBlock(
                      (lin1): Linear(in_features=256, out_features=2048, bias=True)
                      (lin2): Linear(in_features=2048, out_features=256, bias=True)
                      (act): ReLU()
                    )
                    (norm3): LayerNorm((256,), eps=1e-05, elementwise_affine=True)
                    (norm4): LayerNorm((256,), eps=1e-05, elementwise_affine=True)
                    (cross_attn_image_to_token): Attention(
                      (q_proj): Linear(in_features=256, out_features=128, bias=True)
                      (k_proj): Linear(in_features=256, out_features=128, bias=True)
                      (v_proj): Linear(in_features=256, out_features=128, bias=True)
                      (out_proj): Linear(in_features=128, out_features=256, bias=True)
                    )
                  )
                )
                (final_attn_token_to_image): Attention(
                  (q_proj): Linear(in_features=256, out_features=128, bias=True)
                  (k_proj): Linear(in_features=256, out_features=128, bias=True)
                  (v_proj): Linear(in_features=256, out_features=128, bias=True)
                  (out_proj): Linear(in_features=128, out_features=256, bias=True)
                )
                (norm_final_attn): LayerNorm((256,), eps=1e-05, elementwise_affine=True)
              )
              (iou_token): Embedding(1, 256)
              (mask_tokens): Embedding(4, 256)
              (output_upscaling): Sequential(
                (0): ConvTranspose2d(256, 64, kernel_size=(2, 2), stride=(2, 2))
                (1): LayerNorm2d()
                (2): GELU(approximate='none')
                (3): ConvTranspose2d(64, 32, kernel_size=(2, 2), stride=(2, 2))
                (4): GELU(approximate='none')
              )
              (output_hypernetworks_mlps): ModuleList(
                (0-3): 4 x MLP(
                  (layers): ModuleList(
                    (0-1): 2 x Linear(in_features=256, out_features=256, bias=True)
                    (2): Linear(in_features=256, out_features=32, bias=True)
                  )
                )
              )
              (iou_prediction_head): MLP(
                (layers): ModuleList(
                  (0-1): 2 x Linear(in_features=256, out_features=256, bias=True)
                  (2): Linear(in_features=256, out_features=4, bias=True)
                )
              )
            )
          )
          (text_hidden_fcs): ModuleList(
            (0): Sequential(
              (0): Linear(in_features=5120, out_features=5120, bias=True)
              (1): ReLU(inplace=True)
              (2): Linear(in_features=5120, out_features=256, bias=True)
              (3): Dropout(p=0.0, inplace=False)
            )
          )
          (token_to_mask_fcs): ModuleList(
            (0): Sequential(
              (0): Linear(in_features=5120, out_features=5120, bias=True)
              (1): ReLU(inplace=True)
              (2): Linear(in_features=5120, out_features=3, bias=True)
            )
          )
        )
        (lm_head): Linear(in_features=5120, out_features=32002, bias=False)
        (bio_encoder): BidirectionalEncoderBlock(
          (encoder): TransformerEncoder(
            (layers): ModuleList(
              (0): TransformerEncoderLayer(
                (self_attn): MultiheadAttention(
                  (out_proj): NonDynamicallyQuantizableLinear(in_features=5120, out_features=5120, bias=True)
                )
                (linear1): Linear(in_features=5120, out_features=2048, bias=True)
                (dropout): Dropout(p=0.1, inplace=False)
                (linear2): Linear(in_features=2048, out_features=5120, bias=True)
                (norm1): LayerNorm((5120,), eps=1e-05, elementwise_affine=True)
                (norm2): LayerNorm((5120,), eps=1e-05, elementwise_affine=True)
                (dropout1): Dropout(p=0.1, inplace=False)
                (dropout2): Dropout(p=0.1, inplace=False)
              )
            )
          )
        )
        (mask_pooler): TemporalMaskPooler(
          (prompt_encoder): PromptEncoder(
            (pe_layer): PositionEmbeddingRandom()
            (point_embeddings): ModuleList(
              (0-3): 4 x Embedding(1, 256)
            )
            (not_a_point_embed): Embedding(1, 256)
            (mask_downscaling): Sequential(
              (0): Conv2d(1, 4, kernel_size=(2, 2), stride=(2, 2))
              (1): LayerNorm2d()
              (2): GELU(approximate='none')
              (3): Conv2d(4, 16, kernel_size=(2, 2), stride=(2, 2))
              (4): LayerNorm2d()
              (5): GELU(approximate='none')
              (6): Conv2d(16, 256, kernel_size=(1, 1), stride=(1, 1))
            )
            (no_mask_embed): Embedding(1, 256)
          )
          (mask_modulator): FilmModulator(
            (projections): ModuleList(
              (0): Linear(in_features=256, out_features=8, bias=True)
              (1): Linear(in_features=256, out_features=32, bias=True)
              (2): Linear(in_features=256, out_features=512, bias=True)
            )
          )
          (block1): Sequential(
            (0): Sequential(
              (0): Conv2d(1, 4, kernel_size=(2, 2), stride=(2, 2))
              (1): LayerNorm2d()
            )
          )
          (activation1): GELU(approximate='none')
          (block2): Sequential(
            (0): Sequential(
              (3): Conv2d(4, 16, kernel_size=(2, 2), stride=(2, 2))
              (4): LayerNorm2d()
            )
          )
          (activation2): GELU(approximate='none')
          (final_conv): Conv2d(16, 256, kernel_size=(1, 1), stride=(1, 1))
          (attn): MultiheadAttention(
            (out_proj): NonDynamicallyQuantizableLinear(in_features=256, out_features=256, bias=True)
          )
        )
      )
    )
  )
)
*** SyntaxError: closing parenthesis '}' does not match opening parenthesis '['
['/shared/nas/data/m1/jk100/code/OpenAttrLibrary/LISA/dataset/pixar/infoseek/images/oven_00000
…
