…
          [-2.9785e-02, -1.8652e-01, -4.2773e-01,  ..., -1.1094e+00,
           -1.1562e+00, -1.1953e+00],
          [-6.4062e-01, -6.6797e-01, -8.1250e-01,  ..., -1.3672e+00,
           -1.3516e+00, -1.2969e+00],
          [-9.1016e-01, -9.2578e-01, -6.2891e-01,  ..., -1.4531e+00,
           -1.4219e+00, -1.3984e+00]]]], device='cuda:0', dtype=torch.bfloat16)
torch.Size([16, 3, 224, 224])
torch.bfloat16
torch.bfloat16
*** AttributeError: 'VisionTransformer' object has no attribute 'dtype'
torch.bfloat16
torch.bfloat16
*** RuntimeError: expected scalar type Float but found BFloat16
torch.bfloat16
VisionTransformer(
  (conv1): Conv2d(3, 1024, kernel_size=(14, 14), stride=(14, 14), bias=False)
  (ln_pre): LayerNorm((1024,), eps=1e-05, elementwise_affine=True)
  (transformer): Transformer(
    (resblocks): Sequential(
      (0): ResidualAttentionBlock(
        (attn): MultiheadAttention(
          (out_proj): NonDynamicallyQuantizableLinear(in_features=1024, out_features=1024, bias=True)
        )
        (ln_1): LayerNorm((1024,), eps=1e-05, elementwise_affine=True)
        (mlp): Sequential(
          (c_fc): Linear(in_features=1024, out_features=4096, bias=True)
          (gelu): QuickGELU()
          (c_proj): Linear(in_features=4096, out_features=1024, bias=True)
        )
        (ln_2): LayerNorm((1024,), eps=1e-05, elementwise_affine=True)
      )
      (1): ResidualAttentionBlock(
        (attn): MultiheadAttention(
          (out_proj): NonDynamicallyQuantizableLinear(in_features=1024, out_features=1024, bias=True)
        )
        (ln_1): LayerNorm((1024,), eps=1e-05, elementwise_affine=True)
        (mlp): Sequential(
          (c_fc): Linear(in_features=1024, out_features=4096, bias=True)
          (gelu): QuickGELU()
          (c_proj): Linear(in_features=4096, out_features=1024, bias=True)
        )
        (ln_2): LayerNorm((1024,), eps=1e-05, elementwise_affine=True)
      )
      (2): ResidualAttentionBlock(
        (attn): MultiheadAttention(
          (out_proj): NonDynamicallyQuantizableLinear(in_features=1024, out_features=1024, bias=True)
        )
        (ln_1): LayerNorm((1024,), eps=1e-05, elementwise_affine=True)
        (mlp): Sequential(
          (c_fc): Linear(in_features=1024, out_features=4096, bias=True)
          (gelu): QuickGELU()
          (c_proj): Linear(in_features=4096, out_features=1024, bias=True)
        )
        (ln_2): LayerNorm((1024,), eps=1e-05, elementwise_affine=True)
      )
      (3): ResidualAttentionBlock(
        (attn): MultiheadAttention(
          (out_proj): NonDynamicallyQuantizableLinear(in_features=1024, out_features=1024, bias=True)
        )
        (ln_1): LayerNorm((1024,), eps=1e-05, elementwise_affine=True)
        (mlp): Sequential(
          (c_fc): Linear(in_features=1024, out_features=4096, bias=True)
          (gelu): QuickGELU()
          (c_proj): Linear(in_features=4096, out_features=1024, bias=True)
        )
        (ln_2): LayerNorm((1024,), eps=1e-05, elementwise_affine=True)
      )
      (4): ResidualAttentionBlock(
        (attn): MultiheadAttention(
          (out_proj): NonDynamicallyQuantizableLinear(in_features=1024, out_features=1024, bias=True)
        )
        (ln_1): LayerNorm((1024,), eps=1e-05, elementwise_affine=True)
        (mlp): Sequential(
          (c_fc): Linear(in_features=1024, out_features=4096, bias=True)
          (gelu): QuickGELU()
          (c_proj): Linear(in_features=4096, out_features=1024, bias=True)
        )
        (ln_2): LayerNorm((1024,), eps=1e-05, elementwise_affine=True)
      )
      (5): ResidualAttentionBlock(
        (attn): MultiheadAttention(
          (out_proj): NonDynamicallyQuantizableLinear(in_features=1024, out_features=1024, bias=True)
        )
        (ln_1): LayerNorm((1024,), eps=1e-05, elementwise_affine=True)
        (mlp): Sequential(
          (c_fc): Linear(in_features=1024, out_features=4096, bias=True)
          (gelu): QuickGELU()
          (c_proj): Linear(in_features=4096, out_features=1024, bias=True)
        )
        (ln_2): LayerNorm((1024,), eps=1e-05, elementwise_affine=True)
      )
      (6): ResidualAttentionBlock(
        (attn): MultiheadAttention(
          (out_proj): NonDynamicallyQuantizableLinear(in_features=1024, out_features=1024, bias=True)
        )
        (ln_1): LayerNorm((1024,), eps=1e-05, elementwise_affine=True)
        (mlp): Sequential(
          (c_fc): Linear(in_features=1024, out_features=4096, bias=True)
          (gelu): QuickGELU()
          (c_proj): Linear(in_features=4096, out_features=1024, bias=True)
        )
        (ln_2): LayerNorm((1024,), eps=1e-05, elementwise_affine=True)
      )
      (7): ResidualAttentionBlock(
        (attn): MultiheadAttention(
          (out_proj): NonDynamicallyQuantizableLinear(in_features=1024, out_features=1024, bias=True)
        )
        (ln_1): LayerNorm((1024,), eps=1e-05, elementwise_affine=True)
        (mlp): Sequential(
          (c_fc): Linear(in_features=1024, out_features=4096, bias=True)
          (gelu): QuickGELU()
          (c_proj): Linear(in_features=4096, out_features=1024, bias=True)
        )
        (ln_2): LayerNorm((1024,), eps=1e-05, elementwise_affine=True)
      )
      (8): ResidualAttentionBlock(
        (attn): MultiheadAttention(
          (out_proj): NonDynamicallyQuantizableLinear(in_features=1024, out_features=1024, bias=True)
        )
        (ln_1): LayerNorm((1024,), eps=1e-05, elementwise_affine=True)
        (mlp): Sequential(
          (c_fc): Linear(in_features=1024, out_features=4096, bias=True)
          (gelu): QuickGELU()
          (c_proj): Linear(in_features=4096, out_features=1024, bias=True)
        )
        (ln_2): LayerNorm((1024,), eps=1e-05, elementwise_affine=True)
      )
      (9): ResidualAttentionBlock(
        (attn): MultiheadAttention(
          (out_proj): NonDynamicallyQuantizableLinear(in_features=1024, out_features=1024, bias=True)
        )
        (ln_1): LayerNorm((1024,), eps=1e-05, elementwise_affine=True)
        (mlp): Sequential(
          (c_fc): Linear(in_features=1024, out_features=4096, bias=True)
          (gelu): QuickGELU()
          (c_proj): Linear(in_features=4096, out_features=1024, bias=True)
        )
        (ln_2): LayerNorm((1024,), eps=1e-05, elementwise_affine=True)
      )
      (10): ResidualAttentionBlock(
        (attn): MultiheadAttention(
          (out_proj): NonDynamicallyQuantizableLinear(in_features=1024, out_features=1024, bias=True)
        )
        (ln_1): LayerNorm((1024,), eps=1e-05, elementwise_affine=True)
        (mlp): Sequential(
          (c_fc): Linear(in_features=1024, out_features=4096, bias=True)
          (gelu): QuickGELU()
          (c_proj): Linear(in_features=4096, out_features=1024, bias=True)
        )
        (ln_2): LayerNorm((1024,), eps=1e-05, elementwise_affine=True)
      )
      (11): ResidualAttentionBlock(
        (attn): MultiheadAttention(
          (out_proj): NonDynamicallyQuantizableLinear(in_features=1024, out_features=1024, bias=True)
        )
        (ln_1): LayerNorm((1024,), eps=1e-05, elementwise_affine=True)
        (mlp): Sequential(
          (c_fc): Linear(in_features=1024, out_features=4096, bias=True)
          (gelu): QuickGELU()
          (c_proj): Linear(in_features=4096, out_features=1024, bias=True)
        )
        (ln_2): LayerNorm((1024,), eps=1e-05, elementwise_affine=True)
      )
      (12): ResidualAttentionBlock(
        (attn): MultiheadAttention(
          (out_proj): NonDynamicallyQuantizableLinear(in_features=1024, out_features=1024, bias=True)
        )
        (ln_1): LayerNorm((1024,), eps=1e-05, elementwise_affine=True)
        (mlp): Sequential(
          (c_fc): Linear(in_features=1024, out_features=4096, bias=True)
          (gelu): QuickGELU()
          (c_proj): Linear(in_features=4096, out_features=1024, bias=True)
        )
        (ln_2): LayerNorm((1024,), eps=1e-05, elementwise_affine=True)
      )
      (13): ResidualAttentionBlock(
        (attn): MultiheadAttention(
          (out_proj): NonDynamicallyQuantizableLinear(in_features=1024, out_features=1024, bias=True)
        )
        (ln_1): LayerNorm((1024,), eps=1e-05, elementwise_affine=True)
        (mlp): Sequential(
          (c_fc): Linear(in_features=1024, out_features=4096, bias=True)
          (gelu): QuickGELU()
          (c_proj): Linear(in_features=4096, out_features=1024, bias=True)
        )
        (ln_2): LayerNorm((1024,), eps=1e-05, elementwise_affine=True)
      )
      (14): ResidualAttentionBlock(
        (attn): MultiheadAttention(
          (out_proj): NonDynamicallyQuantizableLinear(in_features=1024, out_features=1024, bias=True)
        )
        (ln_1): LayerNorm((1024,), eps=1e-05, elementwise_affine=True)
        (mlp): Sequential(
          (c_fc): Linear(in_features=1024, out_features=4096, bias=True)
          (gelu): QuickGELU()
          (c_proj): Linear(in_features=4096, out_features=1024, bias=True)
        )
        (ln_2): LayerNorm((1024,), eps=1e-05, elementwise_affine=True)
      )
      (15): ResidualAttentionBlock(
        (attn): MultiheadAttention(
          (out_proj): NonDynamicallyQuantizableLinear(in_features=1024, out_features=1024, bias=True)
        )
        (ln_1): LayerNorm((1024,), eps=1e-05, elementwise_affine=True)
        (mlp): Sequential(
          (c_fc): Linear(in_features=1024, out_features=4096, bias=True)
          (gelu): QuickGELU()
          (c_proj): Linear(in_features=4096, out_features=1024, bias=True)
        )
        (ln_2): LayerNorm((1024,), eps=1e-05, elementwise_affine=True)
      )
      (16): ResidualAttentionBlock(
        (attn): MultiheadAttention(
          (out_proj): NonDynamicallyQuantizableLinear(in_features=1024, out_features=1024, bias=True)
        )
        (ln_1): LayerNorm((1024,), eps=1e-05, elementwise_affine=True)
        (mlp): Sequential(
          (c_fc): Linear(in_features=1024, out_features=4096, bias=True)
          (gelu): QuickGELU()
          (c_proj): Linear(in_features=4096, out_features=1024, bias=True)
        )
        (ln_2): LayerNorm((1024,), eps=1e-05, elementwise_affine=True)
      )
      (17): ResidualAttentionBlock(
        (attn): MultiheadAttention(
          (out_proj): NonDynamicallyQuantizableLinear(in_features=1024, out_features=1024, bias=True)
        )
        (ln_1): LayerNorm((1024,), eps=1e-05, elementwise_affine=True)
        (mlp): Sequential(
          (c_fc): Linear(in_features=1024, out_features=4096, bias=True)
          (gelu): QuickGELU()
          (c_proj): Linear(in_features=4096, out_features=1024, bias=True)
        )
        (ln_2): LayerNorm((1024,), eps=1e-05, elementwise_affine=True)
      )
      (18): ResidualAttentionBlock(
        (attn): MultiheadAttention(
          (out_proj): NonDynamicallyQuantizableLinear(in_features=1024, out_features=1024, bias=True)
        )
        (ln_1): LayerNorm((1024,), eps=1e-05, elementwise_affine=True)
        (mlp): Sequential(
          (c_fc): Linear(in_features=1024, out_features=4096, bias=True)
          (gelu): QuickGELU()
          (c_proj): Linear(in_features=4096, out_features=1024, bias=True)
        )
        (ln_2): LayerNorm((1024,), eps=1e-05, elementwise_affine=True)
      )
      (19): ResidualAttentionBlock(
        (attn): MultiheadAttention(
          (out_proj): NonDynamicallyQuantizableLinear(in_features=1024, out_features=1024, bias=True)
        )
        (ln_1): LayerNorm((1024,), eps=1e-05, elementwise_affine=True)
        (mlp): Sequential(
          (c_fc): Linear(in_features=1024, out_features=4096, bias=True)
          (gelu): QuickGELU()
          (c_proj): Linear(in_features=4096, out_features=1024, bias=True)
        )
        (ln_2): LayerNorm((1024,), eps=1e-05, elementwise_affine=True)
      )
      (20): ResidualAttentionBlock(
        (attn): MultiheadAttention(
          (out_proj): NonDynamicallyQuantizableLinear(in_features=1024, out_features=1024, bias=True)
        )
        (ln_1): LayerNorm((1024,), eps=1e-05, elementwise_affine=True)
        (mlp): Sequential(
          (c_fc): Linear(in_features=1024, out_features=4096, bias=True)
          (gelu): QuickGELU()
          (c_proj): Linear(in_features=4096, out_features=1024, bias=True)
        )
        (ln_2): LayerNorm((1024,), eps=1e-05, elementwise_affine=True)
      )
      (21): ResidualAttentionBlock(
        (attn): MultiheadAttention(
          (out_proj): NonDynamicallyQuantizableLinear(in_features=1024, out_features=1024, bias=True)
        )
        (ln_1): LayerNorm((1024,), eps=1e-05, elementwise_affine=True)
        (mlp): Sequential(
          (c_fc): Linear(in_features=1024, out_features=4096, bias=True)
          (gelu): QuickGELU()
          (c_proj): Linear(in_features=4096, out_features=1024, bias=True)
        )
        (ln_2): LayerNorm((1024,), eps=1e-05, elementwise_affine=True)
      )
      (22): ResidualAttentionBlock(
        (attn): MultiheadAttention(
          (out_proj): NonDynamicallyQuantizableLinear(in_features=1024, out_features=1024, bias=True)
        )
        (ln_1): LayerNorm((1024,), eps=1e-05, elementwise_affine=True)
        (mlp): Sequential(
          (c_fc): Linear(in_features=1024, out_features=4096, bias=True)
          (gelu): QuickGELU()
          (c_proj): Linear(in_features=4096, out_features=1024, bias=True)
        )
        (ln_2): LayerNorm((1024,), eps=1e-05, elementwise_affine=True)
      )
      (23): ResidualAttentionBlock(
        (attn): MultiheadAttention(
          (out_proj): NonDynamicallyQuantizableLinear(in_features=1024, out_features=1024, bias=True)
        )
        (ln_1): LayerNorm((1024,), eps=1e-05, elementwise_affine=True)
        (mlp): Sequential(
          (c_fc): Linear(in_features=1024, out_features=4096, bias=True)
          (gelu): QuickGELU()
          (c_proj): Linear(in_features=4096, out_features=1024, bias=True)
        )
        (ln_2): LayerNorm((1024,), eps=1e-05, elementwise_affine=True)
      )
    )
  )
  (ln_post): LayerNorm((1024,), eps=1e-05, elementwise_affine=True)
)
LayerNorm((1024,), eps=1e-05, elementwise_affine=True)
*** AttributeError: 'LayerNorm' object has no attribute 'dtype'
VisionTransformer(
  (conv1): Conv2d(3, 1024, kernel_size=(14, 14), stride=(14, 14), bias=False)
  (ln_pre): LayerNorm((1024,), eps=1e-05, elementwise_affine=True)
  (transformer): Transformer(
    (resblocks): Sequential(
      (0): ResidualAttentionBlock(
        (attn): MultiheadAttention(
          (out_proj): NonDynamicallyQuantizableLinear(in_features=1024, out_features=1024, bias=True)
        )
        (ln_1): LayerNorm((1024,), eps=1e-05, elementwise_affine=True)
        (mlp): Sequential(
          (c_fc): Linear(in_features=1024, out_features=4096, bias=True)
          (gelu): QuickGELU()
          (c_proj): Linear(in_features=4096, out_features=1024, bias=True)
        )
        (ln_2): LayerNorm((1024,), eps=1e-05, elementwise_affine=True)
      )
      (1): ResidualAttentionBlock(
        (attn): MultiheadAttention(
          (out_proj): NonDynamicallyQuantizableLinear(in_features=1024, out_features=1024, bias=True)
        )
        (ln_1): LayerNorm((1024,), eps=1e-05, elementwise_affine=True)
        (mlp): Sequential(
          (c_fc): Linear(in_features=1024, out_features=4096, bias=True)
          (gelu): QuickGELU()
          (c_proj): Linear(in_features=4096, out_features=1024, bias=True)
        )
        (ln_2): LayerNorm((1024,), eps=1e-05, elementwise_affine=True)
      )
      (2): ResidualAttentionBlock(
        (attn): MultiheadAttention(
          (out_proj): NonDynamicallyQuantizableLinear(in_features=1024, out_features=1024, bias=True)
        )
        (ln_1): LayerNorm((1024,), eps=1e-05, elementwise_affine=True)
        (mlp): Sequential(
          (c_fc): Linear(in_features=1024, out_features=4096, bias=True)
          (gelu): QuickGELU()
          (c_proj): Linear(in_features=4096, out_features=1024, bias=True)
        )
        (ln_2): LayerNorm((1024,), eps=1e-05, elementwise_affine=True)
      )
      (3): ResidualAttentionBlock(
        (attn): MultiheadAttention(
          (out_proj): NonDynamicallyQuantizableLinear(in_features=1024, out_features=1024, bias=True)
        )
        (ln_1): LayerNorm((1024,), eps=1e-05, elementwise_affine=True)
        (mlp): Sequential(
          (c_fc): Linear(in_features=1024, out_features=4096, bias=True)
          (gelu): QuickGELU()
          (c_proj): Linear(in_features=4096, out_features=1024, bias=True)
        )
        (ln_2): LayerNorm((1024,), eps=1e-05, elementwise_affine=True)
      )
      (4): ResidualAttentionBlock(
        (attn): MultiheadAttention(
          (out_proj): NonDynamicallyQuantizableLinear(in_features=1024, out_features=1024, bias=True)
        )
        (ln_1): LayerNorm((1024,), eps=1e-05, elementwise_affine=True)
        (mlp): Sequential(
          (c_fc): Linear(in_features=1024, out_features=4096, bias=True)
          (gelu): QuickGELU()
          (c_proj): Linear(in_features=4096, out_features=1024, bias=True)
        )
        (ln_2): LayerNorm((1024,), eps=1e-05, elementwise_affine=True)
      )
      (5): ResidualAttentionBlock(
        (attn): MultiheadAttention(
          (out_proj): NonDynamicallyQuantizableLinear(in_features=1024, out_features=1024, bias=True)
        )
        (ln_1): LayerNorm((1024,), eps=1e-05, elementwise_affine=True)
        (mlp): Sequential(
          (c_fc): Linear(in_features=1024, out_features=4096, bias=True)
          (gelu): QuickGELU()
          (c_proj): Linear(in_features=4096, out_features=1024, bias=True)
        )
        (ln_2): LayerNorm((1024,), eps=1e-05, elementwise_affine=True)
      )
      (6): ResidualAttentionBlock(
        (attn): MultiheadAttention(
          (out_proj): NonDynamicallyQuantizableLinear(in_features=1024, out_features=1024, bias=True)
        )
        (ln_1): LayerNorm((1024,), eps=1e-05, elementwise_affine=True)
        (mlp): Sequential(
          (c_fc): Linear(in_features=1024, out_features=4096, bias=True)
          (gelu): QuickGELU()
          (c_proj): Linear(in_features=4096, out_features=1024, bias=True)
        )
        (ln_2): LayerNorm((1024,), eps=1e-05, elementwise_affine=True)
      )
      (7): ResidualAttentionBlock(
        (attn): MultiheadAttention(
          (out_proj): NonDynamicallyQuantizableLinear(in_features=1024, out_features=1024, bias=True)
        )
        (ln_1): LayerNorm((1024,), eps=1e-05, elementwise_affine=True)
        (mlp): Sequential(
          (c_fc): Linear(in_features=1024, out_features=4096, bias=True)
          (gelu): QuickGELU()
          (c_proj): Linear(in_features=4096, out_features=1024, bias=True)
        )
        (ln_2): LayerNorm((1024,), eps=1e-05, elementwise_affine=True)
      )
      (8): ResidualAttentionBlock(
        (attn): MultiheadAttention(
          (out_proj): NonDynamicallyQuantizableLinear(in_features=1024, out_features=1024, bias=True)
        )
        (ln_1): LayerNorm((1024,), eps=1e-05, elementwise_affine=True)
        (mlp): Sequential(
          (c_fc): Linear(in_features=1024, out_features=4096, bias=True)
          (gelu): QuickGELU()
          (c_proj): Linear(in_features=4096, out_features=1024, bias=True)
        )
        (ln_2): LayerNorm((1024,), eps=1e-05, elementwise_affine=True)
      )
      (9): ResidualAttentionBlock(
        (attn): MultiheadAttention(
          (out_proj): NonDynamicallyQuantizableLinear(in_features=1024, out_features=1024, bias=True)
        )
        (ln_1): LayerNorm((1024,), eps=1e-05, elementwise_affine=True)
        (mlp): Sequential(
          (c_fc): Linear(in_features=1024, out_features=4096, bias=True)
          (gelu): QuickGELU()
          (c_proj): Linear(in_features=4096, out_features=1024, bias=True)
        )
        (ln_2): LayerNorm((1024,), eps=1e-05, elementwise_affine=True)
      )
      (10): ResidualAttentionBlock(
        (attn): MultiheadAttention(
          (out_proj): NonDynamicallyQuantizableLinear(in_features=1024, out_features=1024, bias=True)
        )
        (ln_1): LayerNorm((1024,), eps=1e-05, elementwise_affine=True)
        (mlp): Sequential(
          (c_fc): Linear(in_features=1024, out_features=4096, bias=True)
          (gelu): QuickGELU()
          (c_proj): Linear(in_features=4096, out_features=1024, bias=True)
        )
        (ln_2): LayerNorm((1024,), eps=1e-05, elementwise_affine=True)
      )
      (11): ResidualAttentionBlock(
        (attn): MultiheadAttention(
          (out_proj): NonDynamicallyQuantizableLinear(in_features=1024, out_features=1024, bias=True)
        )
        (ln_1): LayerNorm((1024,), eps=1e-05, elementwise_affine=True)
        (mlp): Sequential(
          (c_fc): Linear(in_features=1024, out_features=4096, bias=True)
          (gelu): QuickGELU()
          (c_proj): Linear(in_features=4096, out_features=1024, bias=True)
        )
        (ln_2): LayerNorm((1024,), eps=1e-05, elementwise_affine=True)
      )
      (12): ResidualAttentionBlock(
        (attn): MultiheadAttention(
          (out_proj): NonDynamicallyQuantizableLinear(in_features=1024, out_features=1024, bias=True)
        )
        (ln_1): LayerNorm((1024,), eps=1e-05, elementwise_affine=True)
        (mlp): Sequential(
          (c_fc): Linear(in_features=1024, out_features=4096, bias=True)
          (gelu): QuickGELU()
          (c_proj): Linear(in_features=4096, out_features=1024, bias=True)
        )
        (ln_2): LayerNorm((1024,), eps=1e-05, elementwise_affine=True)
      )
      (13): ResidualAttentionBlock(
        (attn): MultiheadAttention(
          (out_proj): NonDynamicallyQuantizableLinear(in_features=1024, out_features=1024, bias=True)
        )
        (ln_1): LayerNorm((1024,), eps=1e-05, elementwise_affine=True)
        (mlp): Sequential(
          (c_fc): Linear(in_features=1024, out_features=4096, bias=True)
          (gelu): QuickGELU()
          (c_proj): Linear(in_features=4096, out_features=1024, bias=True)
        )
        (ln_2): LayerNorm((1024,), eps=1e-05, elementwise_affine=True)
      )
      (14): ResidualAttentionBlock(
        (attn): MultiheadAttention(
          (out_proj): NonDynamicallyQuantizableLinear(in_features=1024, out_features=1024, bias=True)
        )
        (ln_1): LayerNorm((1024,), eps=1e-05, elementwise_affine=True)
        (mlp): Sequential(
          (c_fc): Linear(in_features=1024, out_features=4096, bias=True)
          (gelu): QuickGELU()
          (c_proj): Linear(in_features=4096, out_features=1024, bias=True)
        )
        (ln_2): LayerNorm((1024,), eps=1e-05, elementwise_affine=True)
      )
      (15): ResidualAttentionBlock(
        (attn): MultiheadAttention(
          (out_proj): NonDynamicallyQuantizableLinear(in_features=1024, out_features=1024, bias=True)
        )
        (ln_1): LayerNorm((1024,), eps=1e-05, elementwise_affine=True)
        (mlp): Sequential(
          (c_fc): Linear(in_features=1024, out_features=4096, bias=True)
          (gelu): QuickGELU()
          (c_proj): Linear(in_features=4096, out_features=1024, bias=True)
        )
        (ln_2): LayerNorm((1024,), eps=1e-05, elementwise_affine=True)
      )
      (16): ResidualAttentionBlock(
        (attn): MultiheadAttention(
          (out_proj): NonDynamicallyQuantizableLinear(in_features=1024, out_features=1024, bias=True)
        )
        (ln_1): LayerNorm((1024,), eps=1e-05, elementwise_affine=True)
        (mlp): Sequential(
          (c_fc): Linear(in_features=1024, out_features=4096, bias=True)
          (gelu): QuickGELU()
          (c_proj): Linear(in_features=4096, out_features=1024, bias=True)
        )
        (ln_2): LayerNorm((1024,), eps=1e-05, elementwise_affine=True)
      )
      (17): ResidualAttentionBlock(
        (attn): MultiheadAttention(
          (out_proj): NonDynamicallyQuantizableLinear(in_features=1024, out_features=1024, bias=True)
        )
        (ln_1): LayerNorm((1024,), eps=1e-05, elementwise_affine=True)
        (mlp): Sequential(
          (c_fc): Linear(in_features=1024, out_features=4096, bias=True)
          (gelu): QuickGELU()
          (c_proj): Linear(in_features=4096, out_features=1024, bias=True)
        )
        (ln_2): LayerNorm((1024,), eps=1e-05, elementwise_affine=True)
      )
      (18): ResidualAttentionBlock(
        (attn): MultiheadAttention(
          (out_proj): NonDynamicallyQuantizableLinear(in_features=1024, out_features=1024, bias=True)
        )
        (ln_1): LayerNorm((1024,), eps=1e-05, elementwise_affine=True)
        (mlp): Sequential(
          (c_fc): Linear(in_features=1024, out_features=4096, bias=True)
          (gelu): QuickGELU()
          (c_proj): Linear(in_features=4096, out_features=1024, bias=True)
        )
        (ln_2): LayerNorm((1024,), eps=1e-05, elementwise_affine=True)
      )
      (19): ResidualAttentionBlock(
        (attn): MultiheadAttention(
          (out_proj): NonDynamicallyQuantizableLinear(in_features=1024, out_features=1024, bias=True)
        )
        (ln_1): LayerNorm((1024,), eps=1e-05, elementwise_affine=True)
        (mlp): Sequential(
          (c_fc): Linear(in_features=1024, out_features=4096, bias=True)
          (gelu): QuickGELU()
          (c_proj): Linear(in_features=4096, out_features=1024, bias=True)
        )
        (ln_2): LayerNorm((1024,), eps=1e-05, elementwise_affine=True)
      )
      (20): ResidualAttentionBlock(
        (attn): MultiheadAttention(
          (out_proj): NonDynamicallyQuantizableLinear(in_features=1024, out_features=1024, bias=True)
        )
        (ln_1): LayerNorm((1024,), eps=1e-05, elementwise_affine=True)
        (mlp): Sequential(
          (c_fc): Linear(in_features=1024, out_features=4096, bias=True)
          (gelu): QuickGELU()
          (c_proj): Linear(in_features=4096, out_features=1024, bias=True)
        )
        (ln_2): LayerNorm((1024,), eps=1e-05, elementwise_affine=True)
      )
      (21): ResidualAttentionBlock(
        (attn): MultiheadAttention(
          (out_proj): NonDynamicallyQuantizableLinear(in_features=1024, out_features=1024, bias=True)
        )
        (ln_1): LayerNorm((1024,), eps=1e-05, elementwise_affine=True)
        (mlp): Sequential(
          (c_fc): Linear(in_features=1024, out_features=4096, bias=True)
          (gelu): QuickGELU()
          (c_proj): Linear(in_features=4096, out_features=1024, bias=True)
        )
        (ln_2): LayerNorm((1024,), eps=1e-05, elementwise_affine=True)
      )
      (22): ResidualAttentionBlock(
        (attn): MultiheadAttention(
          (out_proj): NonDynamicallyQuantizableLinear(in_features=1024, out_features=1024, bias=True)
        )
        (ln_1): LayerNorm((1024,), eps=1e-05, elementwise_affine=True)
        (mlp): Sequential(
          (c_fc): Linear(in_features=1024, out_features=4096, bias=True)
          (gelu): QuickGELU()
          (c_proj): Linear(in_features=4096, out_features=1024, bias=True)
        )
        (ln_2): LayerNorm((1024,), eps=1e-05, elementwise_affine=True)
      )
      (23): ResidualAttentionBlock(
        (attn): MultiheadAttention(
          (out_proj): NonDynamicallyQuantizableLinear(in_features=1024, out_features=1024, bias=True)
        )
        (ln_1): LayerNorm((1024,), eps=1e-05, elementwise_affine=True)
        (mlp): Sequential(
          (c_fc): Linear(in_features=1024, out_features=4096, bias=True)
          (gelu): QuickGELU()
          (c_proj): Linear(in_features=4096, out_features=1024, bias=True)
        )
        (ln_2): LayerNorm((1024,), eps=1e-05, elementwise_affine=True)
      )
    )
  )
  (ln_post): LayerNorm((1024,), eps=1e-05, elementwise_affine=True)
)
Parameter containing:
tensor([[[[ 2.5269e-02,  1.0620e-02,  7.1716e-03,  ...,  2.3438e-02,
            2.1729e-02,  4.8523e-03],
          [ 1.3733e-02, -6.2256e-03, -4.8218e-03,  ...,  1.6357e-02,
            7.0190e-03, -1.3184e-02],
          [ 1.0071e-02,  2.1362e-03,  2.2888e-03,  ...,  5.5542e-03,
            5.0354e-03, -1.2573e-02],
          ...,
…
