…
roj.weight', 'model.vision_tower.visual.transformer.resblocks.13.mlp.c_proj.weight', 'model.vision_tower.transformer.resblocks.1.attn.in_proj_weight', 'model.vision_tower.visual.transformer.resblocks.12.attn.out_proj.bias', 'model.vision_tower.visual.transformer.resblocks.11.ln_2.weight']
You should probably TRAIN this model on a down-stream task to be able to use it for predictions and inference.
> /shared/nas2/jk100/partonomy_private/src/models/PLUM/model/llava/model/llava_arch.py(60)initialize_vision_modules()
-> self.config.use_mm_proj = True
CLIP(
  (visual): VisionTransformer(
    (conv1): Conv2d(3, 1024, kernel_size=(14, 14), stride=(14, 14), bias=False)
    (ln_pre): LayerNorm((1024,), eps=1e-05, elementwise_affine=True)
    (transformer): Transformer(
      (resblocks): Sequential(
        (0): ResidualAttentionBlock(
          (attn): MultiheadAttention(
            (out_proj): NonDynamicallyQuantizableLinear(in_features=1024, out_features=1024, bias=True)
          )
          (ln_1): LayerNorm((1024,), eps=1e-05, elementwise_affine=True)
          (mlp): Sequential(
            (c_fc): Linear(in_features=1024, out_features=4096, bias=True)
            (gelu): QuickGELU()
            (c_proj): Linear(in_features=4096, out_features=1024, bias=True)
          )
          (ln_2): LayerNorm((1024,), eps=1e-05, elementwise_affine=True)
        )
        (1): ResidualAttentionBlock(
          (attn): MultiheadAttention(
            (out_proj): NonDynamicallyQuantizableLinear(in_features=1024, out_features=1024, bias=True)
          )
          (ln_1): LayerNorm((1024,), eps=1e-05, elementwise_affine=True)
          (mlp): Sequential(
            (c_fc): Linear(in_features=1024, out_features=4096, bias=True)
            (gelu): QuickGELU()
            (c_proj): Linear(in_features=4096, out_features=1024, bias=True)
          )
          (ln_2): LayerNorm((1024,), eps=1e-05, elementwise_affine=True)
        )
        (2): ResidualAttentionBlock(
          (attn): MultiheadAttention(
            (out_proj): NonDynamicallyQuantizableLinear(in_features=1024, out_features=1024, bias=True)
          )
          (ln_1): LayerNorm((1024,), eps=1e-05, elementwise_affine=True)
          (mlp): Sequential(
            (c_fc): Linear(in_features=1024, out_features=4096, bias=True)
            (gelu): QuickGELU()
            (c_proj): Linear(in_features=4096, out_features=1024, bias=True)
          )
          (ln_2): LayerNorm((1024,), eps=1e-05, elementwise_affine=True)
        )
        (3): ResidualAttentionBlock(
          (attn): MultiheadAttention(
            (out_proj): NonDynamicallyQuantizableLinear(in_features=1024, out_features=1024, bias=True)
          )
          (ln_1): LayerNorm((1024,), eps=1e-05, elementwise_affine=True)
          (mlp): Sequential(
            (c_fc): Linear(in_features=1024, out_features=4096, bias=True)
            (gelu): QuickGELU()
            (c_proj): Linear(in_features=4096, out_features=1024, bias=True)
          )
          (ln_2): LayerNorm((1024,), eps=1e-05, elementwise_affine=True)
        )
        (4): ResidualAttentionBlock(
          (attn): MultiheadAttention(
            (out_proj): NonDynamicallyQuantizableLinear(in_features=1024, out_features=1024, bias=True)
          )
          (ln_1): LayerNorm((1024,), eps=1e-05, elementwise_affine=True)
          (mlp): Sequential(
            (c_fc): Linear(in_features=1024, out_features=4096, bias=True)
            (gelu): QuickGELU()
            (c_proj): Linear(in_features=4096, out_features=1024, bias=True)
          )
          (ln_2): LayerNorm((1024,), eps=1e-05, elementwise_affine=True)
        )
        (5): ResidualAttentionBlock(
          (attn): MultiheadAttention(
            (out_proj): NonDynamicallyQuantizableLinear(in_features=1024, out_features=1024, bias=True)
          )
          (ln_1): LayerNorm((1024,), eps=1e-05, elementwise_affine=True)
          (mlp): Sequential(
            (c_fc): Linear(in_features=1024, out_features=4096, bias=True)
            (gelu): QuickGELU()
            (c_proj): Linear(in_features=4096, out_features=1024, bias=True)
          )
          (ln_2): LayerNorm((1024,), eps=1e-05, elementwise_affine=True)
        )
        (6): ResidualAttentionBlock(
          (attn): MultiheadAttention(
            (out_proj): NonDynamicallyQuantizableLinear(in_features=1024, out_features=1024, bias=True)
          )
          (ln_1): LayerNorm((1024,), eps=1e-05, elementwise_affine=True)
          (mlp): Sequential(
            (c_fc): Linear(in_features=1024, out_features=4096, bias=True)
            (gelu): QuickGELU()
            (c_proj): Linear(in_features=4096, out_features=1024, bias=True)
          )
          (ln_2): LayerNorm((1024,), eps=1e-05, elementwise_affine=True)
        )
        (7): ResidualAttentionBlock(
          (attn): MultiheadAttention(
            (out_proj): NonDynamicallyQuantizableLinear(in_features=1024, out_features=1024, bias=True)
          )
          (ln_1): LayerNorm((1024,), eps=1e-05, elementwise_affine=True)
          (mlp): Sequential(
            (c_fc): Linear(in_features=1024, out_features=4096, bias=True)
            (gelu): QuickGELU()
            (c_proj): Linear(in_features=4096, out_features=1024, bias=True)
          )
          (ln_2): LayerNorm((1024,), eps=1e-05, elementwise_affine=True)
        )
        (8): ResidualAttentionBlock(
          (attn): MultiheadAttention(
            (out_proj): NonDynamicallyQuantizableLinear(in_features=1024, out_features=1024, bias=True)
          )
          (ln_1): LayerNorm((1024,), eps=1e-05, elementwise_affine=True)
          (mlp): Sequential(
            (c_fc): Linear(in_features=1024, out_features=4096, bias=True)
            (gelu): QuickGELU()
            (c_proj): Linear(in_features=4096, out_features=1024, bias=True)
          )
          (ln_2): LayerNorm((1024,), eps=1e-05, elementwise_affine=True)
        )
        (9): ResidualAttentionBlock(
          (attn): MultiheadAttention(
            (out_proj): NonDynamicallyQuantizableLinear(in_features=1024, out_features=1024, bias=True)
          )
          (ln_1): LayerNorm((1024,), eps=1e-05, elementwise_affine=True)
          (mlp): Sequential(
            (c_fc): Linear(in_features=1024, out_features=4096, bias=True)
            (gelu): QuickGELU()
            (c_proj): Linear(in_features=4096, out_features=1024, bias=True)
          )
          (ln_2): LayerNorm((1024,), eps=1e-05, elementwise_affine=True)
        )
        (10): ResidualAttentionBlock(
          (attn): MultiheadAttention(
            (out_proj): NonDynamicallyQuantizableLinear(in_features=1024, out_features=1024, bias=True)
          )
          (ln_1): LayerNorm((1024,), eps=1e-05, elementwise_affine=True)
          (mlp): Sequential(
            (c_fc): Linear(in_features=1024, out_features=4096, bias=True)
            (gelu): QuickGELU()
            (c_proj): Linear(in_features=4096, out_features=1024, bias=True)
          )
          (ln_2): LayerNorm((1024,), eps=1e-05, elementwise_affine=True)
        )
        (11): ResidualAttentionBlock(
          (attn): MultiheadAttention(
            (out_proj): NonDynamicallyQuantizableLinear(in_features=1024, out_features=1024, bias=True)
          )
          (ln_1): LayerNorm((1024,), eps=1e-05, elementwise_affine=True)
          (mlp): Sequential(
            (c_fc): Linear(in_features=1024, out_features=4096, bias=True)
            (gelu): QuickGELU()
            (c_proj): Linear(in_features=4096, out_features=1024, bias=True)
          )
          (ln_2): LayerNorm((1024,), eps=1e-05, elementwise_affine=True)
        )
        (12): ResidualAttentionBlock(
          (attn): MultiheadAttention(
            (out_proj): NonDynamicallyQuantizableLinear(in_features=1024, out_features=1024, bias=True)
          )
          (ln_1): LayerNorm((1024,), eps=1e-05, elementwise_affine=True)
          (mlp): Sequential(
            (c_fc): Linear(in_features=1024, out_features=4096, bias=True)
            (gelu): QuickGELU()
            (c_proj): Linear(in_features=4096, out_features=1024, bias=True)
          )
          (ln_2): LayerNorm((1024,), eps=1e-05, elementwise_affine=True)
        )
        (13): ResidualAttentionBlock(
          (attn): MultiheadAttention(
            (out_proj): NonDynamicallyQuantizableLinear(in_features=1024, out_features=1024, bias=True)
          )
          (ln_1): LayerNorm((1024,), eps=1e-05, elementwise_affine=True)
          (mlp): Sequential(
            (c_fc): Linear(in_features=1024, out_features=4096, bias=True)
            (gelu): QuickGELU()
            (c_proj): Linear(in_features=4096, out_features=1024, bias=True)
          )
          (ln_2): LayerNorm((1024,), eps=1e-05, elementwise_affine=True)
        )
        (14): ResidualAttentionBlock(
          (attn): MultiheadAttention(
            (out_proj): NonDynamicallyQuantizableLinear(in_features=1024, out_features=1024, bias=True)
          )
          (ln_1): LayerNorm((1024,), eps=1e-05, elementwise_affine=True)
          (mlp): Sequential(
            (c_fc): Linear(in_features=1024, out_features=4096, bias=True)
            (gelu): QuickGELU()
            (c_proj): Linear(in_features=4096, out_features=1024, bias=True)
          )
          (ln_2): LayerNorm((1024,), eps=1e-05, elementwise_affine=True)
        )
        (15): ResidualAttentionBlock(
          (attn): MultiheadAttention(
            (out_proj): NonDynamicallyQuantizableLinear(in_features=1024, out_features=1024, bias=True)
          )
          (ln_1): LayerNorm((1024,), eps=1e-05, elementwise_affine=True)
          (mlp): Sequential(
            (c_fc): Linear(in_features=1024, out_features=4096, bias=True)
            (gelu): QuickGELU()
            (c_proj): Linear(in_features=4096, out_features=1024, bias=True)
          )
          (ln_2): LayerNorm((1024,), eps=1e-05, elementwise_affine=True)
        )
        (16): ResidualAttentionBlock(
          (attn): MultiheadAttention(
            (out_proj): NonDynamicallyQuantizableLinear(in_features=1024, out_features=1024, bias=True)
          )
          (ln_1): LayerNorm((1024,), eps=1e-05, elementwise_affine=True)
          (mlp): Sequential(
            (c_fc): Linear(in_features=1024, out_features=4096, bias=True)
            (gelu): QuickGELU()
            (c_proj): Linear(in_features=4096, out_features=1024, bias=True)
          )
          (ln_2): LayerNorm((1024,), eps=1e-05, elementwise_affine=True)
        )
        (17): ResidualAttentionBlock(
          (attn): MultiheadAttention(
            (out_proj): NonDynamicallyQuantizableLinear(in_features=1024, out_features=1024, bias=True)
          )
          (ln_1): LayerNorm((1024,), eps=1e-05, elementwise_affine=True)
          (mlp): Sequential(
            (c_fc): Linear(in_features=1024, out_features=4096, bias=True)
            (gelu): QuickGELU()
            (c_proj): Linear(in_features=4096, out_features=1024, bias=True)
          )
          (ln_2): LayerNorm((1024,), eps=1e-05, elementwise_affine=True)
        )
        (18): ResidualAttentionBlock(
          (attn): MultiheadAttention(
            (out_proj): NonDynamicallyQuantizableLinear(in_features=1024, out_features=1024, bias=True)
          )
          (ln_1): LayerNorm((1024,), eps=1e-05, elementwise_affine=True)
          (mlp): Sequential(
            (c_fc): Linear(in_features=1024, out_features=4096, bias=True)
            (gelu): QuickGELU()
            (c_proj): Linear(in_features=4096, out_features=1024, bias=True)
          )
          (ln_2): LayerNorm((1024,), eps=1e-05, elementwise_affine=True)
        )
        (19): ResidualAttentionBlock(
          (attn): MultiheadAttention(
            (out_proj): NonDynamicallyQuantizableLinear(in_features=1024, out_features=1024, bias=True)
          )
          (ln_1): LayerNorm((1024,), eps=1e-05, elementwise_affine=True)
          (mlp): Sequential(
            (c_fc): Linear(in_features=1024, out_features=4096, bias=True)
            (gelu): QuickGELU()
            (c_proj): Linear(in_features=4096, out_features=1024, bias=True)
          )
          (ln_2): LayerNorm((1024,), eps=1e-05, elementwise_affine=True)
        )
        (20): ResidualAttentionBlock(
          (attn): MultiheadAttention(
            (out_proj): NonDynamicallyQuantizableLinear(in_features=1024, out_features=1024, bias=True)
          )
          (ln_1): LayerNorm((1024,), eps=1e-05, elementwise_affine=True)
          (mlp): Sequential(
            (c_fc): Linear(in_features=1024, out_features=4096, bias=True)
            (gelu): QuickGELU()
            (c_proj): Linear(in_features=4096, out_features=1024, bias=True)
          )
          (ln_2): LayerNorm((1024,), eps=1e-05, elementwise_affine=True)
        )
        (21): ResidualAttentionBlock(
          (attn): MultiheadAttention(
            (out_proj): NonDynamicallyQuantizableLinear(in_features=1024, out_features=1024, bias=True)
          )
          (ln_1): LayerNorm((1024,), eps=1e-05, elementwise_affine=True)
          (mlp): Sequential(
            (c_fc): Linear(in_features=1024, out_features=4096, bias=True)
            (gelu): QuickGELU()
            (c_proj): Linear(in_features=4096, out_features=1024, bias=True)
          )
          (ln_2): LayerNorm((1024,), eps=1e-05, elementwise_affine=True)
        )
        (22): ResidualAttentionBlock(
          (attn): MultiheadAttention(
            (out_proj): NonDynamicallyQuantizableLinear(in_features=1024, out_features=1024, bias=True)
          )
          (ln_1): LayerNorm((1024,), eps=1e-05, elementwise_affine=True)
          (mlp): Sequential(
            (c_fc): Linear(in_features=1024, out_features=4096, bias=True)
            (gelu): QuickGELU()
            (c_proj): Linear(in_features=4096, out_features=1024, bias=True)
          )
          (ln_2): LayerNorm((1024,), eps=1e-05, elementwise_affine=True)
        )
        (23): ResidualAttentionBlock(
          (attn): MultiheadAttention(
            (out_proj): NonDynamicallyQuantizableLinear(in_features=1024, out_features=1024, bias=True)
          )
          (ln_1): LayerNorm((1024,), eps=1e-05, elementwise_affine=True)
          (mlp): Sequential(
            (c_fc): Linear(in_features=1024, out_features=4096, bias=True)
            (gelu): QuickGELU()
            (c_proj): Linear(in_features=4096, out_features=1024, bias=True)
          )
          (ln_2): LayerNorm((1024,), eps=1e-05, elementwise_affine=True)
        )
      )
    )
    (ln_post): LayerNorm((1024,), eps=1e-05, elementwise_affine=True)
  )
  (transformer): Transformer(
    (resblocks): Sequential(
      (0): ResidualAttentionBlock(
        (attn): MultiheadAttention(
          (out_proj): NonDynamicallyQuantizableLinear(in_features=768, out_features=768, bias=True)
        )
        (ln_1): LayerNorm((768,), eps=1e-05, elementwise_affine=True)
        (mlp): Sequential(
          (c_fc): Linear(in_features=768, out_features=3072, bias=True)
          (gelu): QuickGELU()
          (c_proj): Linear(in_features=3072, out_features=768, bias=True)
        )
        (ln_2): LayerNorm((768,), eps=1e-05, elementwise_affine=True)
      )
      (1): ResidualAttentionBlock(
        (attn): MultiheadAttention(
          (out_proj): NonDynamicallyQuantizableLinear(in_features=768, out_features=768, bias=True)
        )
        (ln_1): LayerNorm((768,), eps=1e-05, elementwise_affine=True)
        (mlp): Sequential(
          (c_fc): Linear(in_features=768, out_features=3072, bias=True)
          (gelu): QuickGELU()
          (c_proj): Linear(in_features=3072, out_features=768, bias=True)
        )
        (ln_2): LayerNorm((768,), eps=1e-05, elementwise_affine=True)
      )
      (2): ResidualAttentionBlock(
        (attn): MultiheadAttention(
          (out_proj): NonDynamicallyQuantizableLinear(in_features=768, out_features=768, bias=True)
        )
        (ln_1): LayerNorm((768,), eps=1e-05, elementwise_affine=True)
        (mlp): Sequential(
          (c_fc): Linear(in_features=768, out_features=3072, bias=True)
          (gelu): QuickGELU()
          (c_proj): Linear(in_features=3072, out_features=768, bias=True)
        )
        (ln_2): LayerNorm((768,), eps=1e-05, elementwise_affine=True)
      )
      (3): ResidualAttentionBlock(
        (attn): MultiheadAttention(
          (out_proj): NonDynamicallyQuantizableLinear(in_features=768, out_features=768, bias=True)
        )
        (ln_1): LayerNorm((768,), eps=1e-05, elementwise_affine=True)
        (mlp): Sequential(
          (c_fc): Linear(in_features=768, out_features=3072, bias=True)
          (gelu): QuickGELU()
          (c_proj): Linear(in_features=3072, out_features=768, bias=True)
        )
        (ln_2): LayerNorm((768,), eps=1e-05, elementwise_affine=True)
      )
      (4): ResidualAttentionBlock(
        (attn): MultiheadAttention(
          (out_proj): NonDynamicallyQuantizableLinear(in_features=768, out_features=768, bias=True)
        )
        (ln_1): LayerNorm((768,), eps=1e-05, elementwise_affine=True)
        (mlp): Sequential(
          (c_fc): Linear(in_features=768, out_features=3072, bias=True)
          (gelu): QuickGELU()
          (c_proj): Linear(in_features=3072, out_features=768, bias=True)
        )
        (ln_2): LayerNorm((768,), eps=1e-05, elementwise_affine=True)
      )
      (5): ResidualAttentionBlock(
        (attn): MultiheadAttention(
          (out_proj): NonDynamicallyQuantizableLinear(in_features=768, out_features=768, bias=True)
        )
        (ln_1): LayerNorm((768,), eps=1e-05, elementwise_affine=True)
        (mlp): Sequential(
          (c_fc): Linear(in_features=768, out_features=3072, bias=True)
          (gelu): QuickGELU()
          (c_proj): Linear(in_features=3072, out_features=768, bias=True)
        )
        (ln_2): LayerNorm((768,), eps=1e-05, elementwise_affine=True)
      )
      (6): ResidualAttentionBlock(
        (attn): MultiheadAttention(
          (out_proj): NonDynamicallyQuantizableLinear(in_features=768, out_features=768, bias=True)
        )
        (ln_1): LayerNorm((768,), eps=1e-05, elementwise_affine=True)
        (mlp): Sequential(
          (c_fc): Linear(in_features=768, out_features=3072, bias=True)
          (gelu): QuickGELU()
          (c_proj): Linear(in_features=3072, out_features=768, bias=True)
        )
        (ln_2): LayerNorm((768,), eps=1e-05, elementwise_affine=True)
      )
      (7): ResidualAttentionBlock(
        (attn): MultiheadAttention(
          (out_proj): NonDynamicallyQuantizableLinear(in_features=768, out_features=768, bias=True)
        )
        (ln_1): LayerNorm((768,), eps=1e-05, elementwise_affine=True)
        (mlp): Sequential(
          (c_fc): Linear(in_features=768, out_features=3072, bias=True)
          (gelu): QuickGELU()
          (c_proj): Linear(in_features=3072, out_features=768, bias=True)
        )
        (ln_2): LayerNorm((768,), eps=1e-05, elementwise_affine=True)
      )
      (8): ResidualAttentionBlock(
        (attn): MultiheadAttention(
          (out_proj): NonDynamicallyQuantizableLinear(in_features=768, out_features=768, bias=True)
        )
        (ln_1): LayerNorm((768,), eps=1e-05, elementwise_affine=True)
        (mlp): Sequential(
          (c_fc): Linear(in_features=768, out_features=3072, bias=True)
          (gelu): QuickGELU()
          (c_proj): Linear(in_features=3072, out_features=768, bias=True)
        )
        (ln_2): LayerNorm((768,), eps=1e-05, elementwise_affine=True)
      )
      (9): ResidualAttentionBlock(
        (attn): MultiheadAttention(
          (out_proj): NonDynamicallyQuantizableLinear(in_features=768, out_features=768, bias=True)
        )
        (ln_1): LayerNorm((768,), eps=1e-05, elementwise_affine=True)
        (mlp): Sequential(
          (c_fc): Linear(in_features=768, out_features=3072, bias=True)
          (gelu): QuickGELU()
          (c_proj): Linear(in_features=3072, out_features=768, bias=True)
        )
        (ln_2): LayerNorm((768,), eps=1e-05, elementwise_affine=True)
      )
      (10): ResidualAttentionBlock(
        (attn): MultiheadAttention(
          (out_proj): NonDynamicallyQuantizableLinear(in_features=768, out_features=768, bias=True)
        )
        (ln_1): LayerNorm((768,), eps=1e-05, elementwise_affine=True)
        (mlp): Sequential(
          (c_fc): Linear(in_features=768, out_features=3072, bias=True)
          (gelu): QuickGELU()
          (c_proj): Linear(in_features=3072, out_features=768, bias=True)
        )
        (ln_2): LayerNorm((768,), eps=1e-05, elementwise_affine=True)
      )
      (11): ResidualAttentionBlock(
        (attn): MultiheadAttention(
          (out_proj): NonDynamicallyQuantizableLinear(in_features=768, out_features=768, bias=True)
        )
        (ln_1): LayerNorm((768,), eps=1e-05, elementwise_affine=True)
        (mlp): Sequential(
          (c_fc): Linear(in_features=768, out_features=3072, bias=True)
          (gelu): QuickGELU()
          (c_proj): Linear(in_features=3072, out_features=768, bias=True)
        )
        (ln_2): LayerNorm((768,), eps=1e-05, elementwise_affine=True)
      )
    )
  )
  (token_embedding): Embedding(49408, 768)
  (ln_final): LayerNorm((768,), eps=1e-05, elementwise_affine=True)
)
*** AttributeError: 'CLIP' object has no attribute 'embed_dim'
Embedding(49408, 768)
Parameter containing:
tensor([[ 0.0016,  0.0020,  0.0002,  ..., -0.0013,  0.0008,  0.0015],
        [ 0.0042,  0.0029,  0.0002,  ...,  0.0010,  0.0015, -0.0012],
        [ 0.0018,  0.0007, -0.0012,  ..., -0.0029, -0.0009,  0.0026],
        ...,
        [ 0.0216,  0.0055, -0.0101,  ..., -0.0065, -0.0029,  0.0037],
        [ 0.0188,  0.0073, -0.0077,  ..., -0.0025, -0.0009,  0.0057],
        [ 0.0330,  0.0281,  0.0289,  ...,  0.0160,  0.0102, -0.0310]],
       device='cuda:0', requires_grad=True)
LayerNorm((768,), eps=1e-05, elementwise_affine=True)
*** AttributeError: 'CLIP' object has no attribute 'transformer_width'
VisionTransformer(
  (conv1): Conv2d(3, 1024, kernel_size=(14, 14), stride=(14, 14), bias=False)
  (ln_pre): LayerNorm((1024,), eps=1e-05, elementwise_affine=True)
  (transformer): Transformer(
    (resblocks): Sequential(
      (0): ResidualAttentionBlock(
        (attn): MultiheadAttention(
          (out_proj): NonDynamicallyQuantizableLinear(in_features=1024, out_features=1024, bias=True)
        )
        (ln_1): LayerNorm((1024,), eps=1e-05, elementwise_affine=True)
        (mlp): Sequential(
          (c_fc): Linear(in_features=1024, out_features=4096, bias=True)
          (gelu): QuickGELU()
          (c_proj): Linear(in_features=4096, out_features=1024, bias=True)
        )
        (ln_2): LayerNorm((1024,), eps=1e-05, elementwise_affine=True)
      )
      (1): ResidualAttentionBlock(
        (attn): MultiheadAttention(
          (out_proj): NonDynamicallyQuantizableLinear(in_features=1024, out_features=1024, bias=True)
        )
        (ln_1): LayerNorm((1024,), eps=1e-05, elementwise_affine=True)
        (mlp): Sequential(
          (c_fc): Linear(in_features=1024, out_features=4096, bias=True)
          (gelu): QuickGELU()
          (c_proj): Linear(in_features=4096, out_features=1024, bias=True)
        )
        (ln_2): LayerNorm((1024,), eps=1e-05, elementwise_affine=True)
      )
      (2): ResidualAttentionBlock(
        (attn): MultiheadAttention(
          (out_proj): NonDynamicallyQuantizableLinear(in_features=1024, out_features=1024, bias=True)
        )
        (ln_1): LayerNorm((1024,), eps=1e-05, elementwise_affine=True)
        (mlp): Sequential(
          (c_fc): Linear(in_features=1024, out_features=4096, bias=True)
          (gelu): QuickGELU()
          (c_proj): Linear(in_features=4096, out_features=1024, bias=True)
        )
        (ln_2): LayerNorm((1024,), eps=1e-05, elementwise_affine=True)
      )
      (3): ResidualAttentionBlock(
        (attn): MultiheadAttention(
          (out_proj): NonDynamicallyQuantizableLinear(in_features=1024, out_features=1024, bias=True)
        )
        (ln_1): LayerNorm((1024,), eps=1e-05, elementwise_affine=True)
        (mlp): Sequential(
          (c_fc): Linear(in_features=1024, out_features=4096, bias=True)
          (gelu): QuickGELU()
          (c_proj): Linear(in_features=4096, out_features=1024, bias=True)
        )
        (ln_2): LayerNorm((1024,), eps=1e-05, elementwise_affine=True)
      )
      (4): ResidualAttentionBlock(
        (attn): MultiheadAttention(
          (out_proj): NonDynamicallyQuantizableLinear(in_features=1024, out_features=1024, bias=True)
        )
        (ln_1): LayerNorm((1024,), eps=1e-05, elementwise_affine=True)
        (mlp): Sequential(
          (c_fc): Linear(in_features=1024, out_features=4096, bias=True)
          (gelu): QuickGELU()
          (c_proj): Linear(in_features=4096, out_features=1024, bias=True)
        )
        (ln_2): LayerNorm((1024,), eps=1e-05, elementwise_affine=True)
      )
      (5): ResidualAttentionBlock(
        (attn): MultiheadAttention(
          (out_proj): NonDynamicallyQuantizableLinear(in_features=1024, out_features=1024, bias=True)
        )
        (ln_1): LayerNorm((1024,), eps=1e-05, elementwise_affine=True)
        (mlp): Sequential(
          (c_fc): Linear(in_features=1024, out_features=4096, bias=True)
          (gelu): QuickGELU()
          (c_proj): Linear(in_features=4096, out_features=1024, bias=True)
        )
        (ln_2): LayerNorm((1024,), eps=1e-05, elementwise_affine=True)
      )
      (6): ResidualAttentionBlock(
        (attn): MultiheadAttention(
          (out_proj): NonDynamicallyQuantizableLinear(in_features=1024, out_features=1024, bias=True)
        )
        (ln_1): LayerNorm((1024,), eps=1e-05, elementwise_affine=True)
        (mlp): Sequential(
          (c_fc): Linear(in_features=1024, out_features=4096, bias=True)
          (gelu): QuickGELU()
          (c_proj): Linear(in_features=4096, out_features=1024, bias=True)
        )
        (ln_2): LayerNorm((1024,), eps=1e-05, elementwise_affine=True)
      )
      (7): ResidualAttentionBlock(
        (attn): MultiheadAttention(
          (out_proj): NonDynamicallyQuantizableLinear(in_features=1024, out_features=1024, bias=True)
        )
        (ln_1): LayerNorm((1024,), eps=1e-05, elementwise_affine=True)
        (mlp): Sequential(
          (c_fc): Linear(in_features=1024, out_features=4096, bias=True)
          (gelu): QuickGELU()
          (c_proj): Linear(in_features=4096, out_features=1024, bias=True)
        )
        (ln_2): LayerNorm((1024,), eps=1e-05, elementwise_affine=True)
      )
      (8): ResidualAttentionBlock(
        (attn): MultiheadAttention(
          (out_proj): NonDynamicallyQuantizableLinear(in_features=1024, out_features=1024, bias=True)
        )
        (ln_1): LayerNorm((1024,), eps=1e-05, elementwise_affine=True)
        (mlp): Sequential(
          (c_fc): Linear(in_features=1024, out_features=4096, bias=True)
          (gelu): QuickGELU()
          (c_proj): Linear(in_features=4096, out_features=1024, bias=True)
        )
        (ln_2): LayerNorm((1024,), eps=1e-05, elementwise_affine=True)
      )
      (9): ResidualAttentionBlock(
        (attn): MultiheadAttention(
          (out_proj): NonDynamicallyQuantizableLinear(in_features=1024, out_features=1024, bias=True)
        )
        (ln_1): LayerNorm((1024,), eps=1e-05, elementwise_affine=True)
        (mlp): Sequential(
          (c_fc): Linear(in_features=1024, out_features=4096, bias=True)
          (gelu): QuickGELU()
          (c_proj): Linear(in_features=4096, out_features=1024, bias=True)
        )
        (ln_2): LayerNorm((1024,), eps=1e-05, elementwise_affine=True)
      )
      (10): ResidualAttentionBlock(
        (attn): MultiheadAttention(
          (out_proj): NonDynamicallyQuantizableLinear(in_features=1024, out_features=1024, bias=True)
        )
        (ln_1): LayerNorm((1024,), eps=1e-05, elementwise_affine=True)
        (mlp): Sequential(
          (c_fc): Linear(in_features=1024, out_features=4096, bias=True)
          (gelu): QuickGELU()
          (c_proj): Linear(in_features=4096, out_features=1024, bias=True)
        )
        (ln_2): LayerNorm((1024,), eps=1e-05, elementwise_affine=True)
      )
      (11): ResidualAttentionBlock(
        (attn): MultiheadAttention(
          (out_proj): NonDynamicallyQuantizableLinear(in_features=1024, out_features=1024, bias=True)
        )
        (ln_1): LayerNorm((1024,), eps=1e-05, elementwise_affine=True)
        (mlp): Sequential(
          (c_fc): Linear(in_features=1024, out_features=4096, bias=True)
          (gelu): QuickGELU()
          (c_proj): Linear(in_features=4096, out_features=1024, bias=True)
        )
        (ln_2): LayerNorm((1024,), eps=1e-05, elementwise_affine=True)
      )
      (12): ResidualAttentionBlock(
        (attn): MultiheadAttention(
          (out_proj): NonDynamicallyQuantizableLinear(in_features=1024, out_features=1024, bias=True)
        )
        (ln_1): LayerNorm((1024,), eps=1e-05, elementwise_affine=True)
        (mlp): Sequential(
          (c_fc): Linear(in_features=1024, out_features=4096, bias=True)
          (gelu): QuickGELU()
          (c_proj): Linear(in_features=4096, out_features=1024, bias=True)
        )
        (ln_2): LayerNorm((1024,), eps=1e-05, elementwise_affine=True)
      )
      (13): ResidualAttentionBlock(
        (attn): MultiheadAttention(
          (out_proj): NonDynamicallyQuantizableLinear(in_features=1024, out_features=1024, bias=True)
        )
        (ln_1): LayerNorm((1024,), eps=1e-05, elementwise_affine=True)
        (mlp): Sequential(
          (c_fc): Linear(in_features=1024, out_features=4096, bias=True)
          (gelu): QuickGELU()
          (c_proj): Linear(in_features=4096, out_features=1024, bias=True)
        )
        (ln_2): LayerNorm((1024,), eps=1e-05, elementwise_affine=True)
      )
      (14): ResidualAttentionBlock(
        (attn): MultiheadAttention(
          (out_proj): NonDynamicallyQuantizableLinear(in_features=1024, out_features=1024, bias=True)
        )
        (ln_1): LayerNorm((1024,), eps=1e-05, elementwise_affine=True)
        (mlp): Sequential(
          (c_fc): Linear(in_features=1024, out_features=4096, bias=True)
          (gelu): QuickGELU()
          (c_proj): Linear(in_features=4096, out_features=1024, bias=True)
        )
        (ln_2): LayerNorm((1024,), eps=1e-05, elementwise_affine=True)
      )
      (15): ResidualAttentionBlock(
        (attn): MultiheadAttention(
          (out_proj): NonDynamicallyQuantizableLinear(in_features=1024, out_features=1024, bias=True)
        )
        (ln_1): LayerNorm((1024,), eps=1e-05, elementwise_affine=True)
        (mlp): Sequential(
          (c_fc): Linear(in_features=1024, out_features=4096, bias=True)
          (gelu): QuickGELU()
          (c_proj): Linear(in_features=4096, out_features=1024, bias=True)
        )
        (ln_2): LayerNorm((1024,), eps=1e-05, elementwise_affine=True)
      )
      (16): ResidualAttentionBlock(
        (attn): MultiheadAttention(
          (out_proj): NonDynamicallyQuantizableLinear(in_features=1024, out_features=1024, bias=True)
        )
        (ln_1): LayerNorm((1024,), eps=1e-05, elementwise_affine=True)
        (mlp): Sequential(
          (c_fc): Linear(in_features=1024, out_features=4096, bias=True)
          (gelu): QuickGELU()
          (c_proj): Linear(in_features=4096, out_features=1024, bias=True)
        )
        (ln_2): LayerNorm((1024,), eps=1e-05, elementwise_affine=True)
      )
      (17): ResidualAttentionBlock(
        (attn): MultiheadAttention(
          (out_proj): NonDynamicallyQuantizableLinear(in_features=1024, out_features=1024, bias=True)
        )
        (ln_1): LayerNorm((1024,), eps=1e-05, elementwise_affine=True)
        (mlp): Sequential(
          (c_fc): Linear(in_features=1024, out_features=4096, bias=True)
          (gelu): QuickGELU()
          (c_proj): Linear(in_features=4096, out_features=1024, bias=True)
        )
        (ln_2): LayerNorm((1024,), eps=1e-05, elementwise_affine=True)
      )
      (18): ResidualAttentionBlock(
        (attn): MultiheadAttention(
          (out_proj): NonDynamicallyQuantizableLinear(in_features=1024, out_features=1024, bias=True)
        )
        (ln_1): LayerNorm((1024,), eps=1e-05, elementwise_affine=True)
        (mlp): Sequential(
          (c_fc): Linear(in_features=1024, out_features=4096, bias=True)
          (gelu): QuickGELU()
          (c_proj): Linear(in_features=4096, out_features=1024, bias=True)
        )
        (ln_2): LayerNorm((1024,), eps=1e-05, elementwise_affine=True)
      )
      (19): ResidualAttentionBlock(
        (attn): MultiheadAttention(
          (out_proj): NonDynamicallyQuantizableLinear(in_features=1024, out_features=1024, bias=True)
        )
        (ln_1): LayerNorm((1024,), eps=1e-05, elementwise_affine=True)
        (mlp): Sequential(
          (c_fc): Linear(in_features=1024, out_features=4096, bias=True)
          (gelu): QuickGELU()
          (c_proj): Linear(in_features=4096, out_features=1024, bias=True)
        )
        (ln_2): LayerNorm((1024,), eps=1e-05, elementwise_affine=True)
      )
      (20): ResidualAttentionBlock(
        (attn): MultiheadAttention(
          (out_proj): NonDynamicallyQuantizableLinear(in_features=1024, out_features=1024, bias=True)
        )
        (ln_1): LayerNorm((1024,), eps=1e-05, elementwise_affine=True)
        (mlp): Sequential(
          (c_fc): Linear(in_features=1024, out_features=4096, bias=True)
          (gelu): QuickGELU()
          (c_proj): Linear(in_features=4096, out_features=1024, bias=True)
        )
        (ln_2): LayerNorm((1024,), eps=1e-05, elementwise_affine=True)
      )
      (21): ResidualAttentionBlock(
        (attn): MultiheadAttention(
          (out_proj): NonDynamicallyQuantizableLinear(in_features=1024, out_features=1024, bias=True)
        )
        (ln_1): LayerNorm((1024,), eps=1e-05, elementwise_affine=True)
        (mlp): Sequential(
          (c_fc): Linear(in_features=1024, out_features=4096, bias=True)
          (gelu): QuickGELU()
          (c_proj): Linear(in_features=4096, out_features=1024, bias=True)
        )
        (ln_2): LayerNorm((1024,), eps=1e-05, elementwise_affine=True)
      )
      (22): ResidualAttentionBlock(
        (attn): MultiheadAttention(
          (out_proj): NonDynamicallyQuantizableLinear(in_features=1024, out_features=1024, bias=True)
        )
        (ln_1): LayerNorm((1024,), eps=1e-05, elementwise_affine=True)
        (mlp): Sequential(
          (c_fc): Linear(in_features=1024, out_features=4096, bias=True)
          (gelu): QuickGELU()
          (c_proj): Linear(in_features=4096, out_features=1024, bias=True)
        )
        (ln_2): LayerNorm((1024,), eps=1e-05, elementwise_affine=True)
      )
      (23): ResidualAttentionBlock(
        (attn): MultiheadAttention(
          (out_proj): NonDynamicallyQuantizableLinear(in_features=1024, out_features=1024, bias=True)
        )
        (ln_1): LayerNorm((1024,), eps=1e-05, elementwise_affine=True)
        (mlp): Sequential(
          (c_fc): Linear(in_features=1024, out_features=4096, bias=True)
          (gelu): QuickGELU()
          (c_proj): Linear(in_features=4096, out_features=1024, bias=True)
        )
        (ln_2): LayerNorm((1024,), eps=1e-05, elementwise_affine=True)
      )
    )
  )
  (ln_post): LayerNorm((1024,), eps=1e-05, elementwise_affine=True)
)
Conv2d(3, 1024, kernel_size=(14, 14), stride=(14, 14), bias=False)
Parameter containing:
tensor([[[[ 2.5284e-02,  1.0597e-02,  7.1678e-03,  ...,  2.3422e-02,
            2.1683e-02,  4.8637e-03],
          [ 1.3748e-02, -6.2103e-03, -4.8103e-03,  ...,  1.6418e-02,
            7.0114e-03, -1.3161e-02],
          [ 1.0048e-02,  2.1286e-03,  2.2945e-03,  ...,  5.5695e-03,
…
            3.4485e-02,  4.2267e-03],
          ...,
          [ 3.7415e-02,  4.6143e-02,  4.9500e-02,  ...,  2.0111e-02,
            4.0741e-03, -6.3667e-03],
          [-5.8479e-03, -9.4757e-03,  1.2398e-02,  ...,  2.1317e-02,
            1.5762e-02,  2.5894e-02],
          [ 2.3136e-03, -7.0858e-04,  1.7914e-02,  ...,  1.1047e-02,
            2.1496e-03,  2.2278e-02]]]], device='cuda:0', dtype=torch.float16,
       requires_grad=True)
Conv2d(3, 1024, kernel_size=(14, 14), stride=(14, 14), bias=False)
*** AttributeError: 'VisionTransformer' object has no attribute 'conv2'
VisionTransformer(
  (conv1): Conv2d(3, 1024, kernel_size=(14, 14), stride=(14, 14), bias=False)
  (ln_pre): LayerNorm((1024,), eps=1e-05, elementwise_affine=True)
  (transformer): Transformer(
    (resblocks): Sequential(
      (0): ResidualAttentionBlock(
        (attn): MultiheadAttention(
          (out_proj): NonDynamicallyQuantizableLinear(in_features=1024, out_features=1024, bias=True)
        )
        (ln_1): LayerNorm((1024,), eps=1e-05, elementwise_affine=True)
        (mlp): Sequential(
          (c_fc): Linear(in_features=1024, out_features=4096, bias=True)
          (gelu): QuickGELU()
          (c_proj): Linear(in_features=4096, out_features=1024, bias=True)
        )
        (ln_2): LayerNorm((1024,), eps=1e-05, elementwise_affine=True)
      )
      (1): ResidualAttentionBlock(
        (attn): MultiheadAttention(
          (out_proj): NonDynamicallyQuantizableLinear(in_features=1024, out_features=1024, bias=True)
        )
        (ln_1): LayerNorm((1024,), eps=1e-05, elementwise_affine=True)
        (mlp): Sequential(
          (c_fc): Linear(in_features=1024, out_features=4096, bias=True)
          (gelu): QuickGELU()
          (c_proj): Linear(in_features=4096, out_features=1024, bias=True)
        )
        (ln_2): LayerNorm((1024,), eps=1e-05, elementwise_affine=True)
      )
      (2): ResidualAttentionBlock(
        (attn): MultiheadAttention(
          (out_proj): NonDynamicallyQuantizableLinear(in_features=1024, out_features=1024, bias=True)
        )
        (ln_1): LayerNorm((1024,), eps=1e-05, elementwise_affine=True)
        (mlp): Sequential(
          (c_fc): Linear(in_features=1024, out_features=4096, bias=True)
          (gelu): QuickGELU()
          (c_proj): Linear(in_features=4096, out_features=1024, bias=True)
        )
        (ln_2): LayerNorm((1024,), eps=1e-05, elementwise_affine=True)
      )
      (3): ResidualAttentionBlock(
        (attn): MultiheadAttention(
          (out_proj): NonDynamicallyQuantizableLinear(in_features=1024, out_features=1024, bias=True)
        )
        (ln_1): LayerNorm((1024,), eps=1e-05, elementwise_affine=True)
        (mlp): Sequential(
          (c_fc): Linear(in_features=1024, out_features=4096, bias=True)
          (gelu): QuickGELU()
          (c_proj): Linear(in_features=4096, out_features=1024, bias=True)
        )
        (ln_2): LayerNorm((1024,), eps=1e-05, elementwise_affine=True)
      )
      (4): ResidualAttentionBlock(
        (attn): MultiheadAttention(
          (out_proj): NonDynamicallyQuantizableLinear(in_features=1024, out_features=1024, bias=True)
        )
        (ln_1): LayerNorm((1024,), eps=1e-05, elementwise_affine=True)
        (mlp): Sequential(
          (c_fc): Linear(in_features=1024, out_features=4096, bias=True)
          (gelu): QuickGELU()
          (c_proj): Linear(in_features=4096, out_features=1024, bias=True)
        )
        (ln_2): LayerNorm((1024,), eps=1e-05, elementwise_affine=True)
      )
      (5): ResidualAttentionBlock(
        (attn): MultiheadAttention(
          (out_proj): NonDynamicallyQuantizableLinear(in_features=1024, out_features=1024, bias=True)
        )
        (ln_1): LayerNorm((1024,), eps=1e-05, elementwise_affine=True)
        (mlp): Sequential(
          (c_fc): Linear(in_features=1024, out_features=4096, bias=True)
          (gelu): QuickGELU()
          (c_proj): Linear(in_features=4096, out_features=1024, bias=True)
        )
        (ln_2): LayerNorm((1024,), eps=1e-05, elementwise_affine=True)
      )
      (6): ResidualAttentionBlock(
        (attn): MultiheadAttention(
          (out_proj): NonDynamicallyQuantizableLinear(in_features=1024, out_features=1024, bias=True)
        )
        (ln_1): LayerNorm((1024,), eps=1e-05, elementwise_affine=True)
        (mlp): Sequential(
          (c_fc): Linear(in_features=1024, out_features=4096, bias=True)
          (gelu): QuickGELU()
          (c_proj): Linear(in_features=4096, out_features=1024, bias=True)
        )
        (ln_2): LayerNorm((1024,), eps=1e-05, elementwise_affine=True)
      )
      (7): ResidualAttentionBlock(
        (attn): MultiheadAttention(
          (out_proj): NonDynamicallyQuantizableLinear(in_features=1024, out_features=1024, bias=True)
        )
        (ln_1): LayerNorm((1024,), eps=1e-05, elementwise_affine=True)
        (mlp): Sequential(
          (c_fc): Linear(in_features=1024, out_features=4096, bias=True)
          (gelu): QuickGELU()
          (c_proj): Linear(in_features=4096, out_features=1024, bias=True)
        )
        (ln_2): LayerNorm((1024,), eps=1e-05, elementwise_affine=True)
      )
      (8): ResidualAttentionBlock(
        (attn): MultiheadAttention(
          (out_proj): NonDynamicallyQuantizableLinear(in_features=1024, out_features=1024, bias=True)
        )
        (ln_1): LayerNorm((1024,), eps=1e-05, elementwise_affine=True)
        (mlp): Sequential(
          (c_fc): Linear(in_features=1024, out_features=4096, bias=True)
          (gelu): QuickGELU()
          (c_proj): Linear(in_features=4096, out_features=1024, bias=True)
        )
        (ln_2): LayerNorm((1024,), eps=1e-05, elementwise_affine=True)
      )
      (9): ResidualAttentionBlock(
        (attn): MultiheadAttention(
          (out_proj): NonDynamicallyQuantizableLinear(in_features=1024, out_features=1024, bias=True)
        )
        (ln_1): LayerNorm((1024,), eps=1e-05, elementwise_affine=True)
        (mlp): Sequential(
          (c_fc): Linear(in_features=1024, out_features=4096, bias=True)
          (gelu): QuickGELU()
          (c_proj): Linear(in_features=4096, out_features=1024, bias=True)
        )
        (ln_2): LayerNorm((1024,), eps=1e-05, elementwise_affine=True)
      )
      (10): ResidualAttentionBlock(
        (attn): MultiheadAttention(
          (out_proj): NonDynamicallyQuantizableLinear(in_features=1024, out_features=1024, bias=True)
        )
        (ln_1): LayerNorm((1024,), eps=1e-05, elementwise_affine=True)
        (mlp): Sequential(
          (c_fc): Linear(in_features=1024, out_features=4096, bias=True)
          (gelu): QuickGELU()
          (c_proj): Linear(in_features=4096, out_features=1024, bias=True)
        )
        (ln_2): LayerNorm((1024,), eps=1e-05, elementwise_affine=True)
      )
      (11): ResidualAttentionBlock(
        (attn): MultiheadAttention(
          (out_proj): NonDynamicallyQuantizableLinear(in_features=1024, out_features=1024, bias=True)
        )
        (ln_1): LayerNorm((1024,), eps=1e-05, elementwise_affine=True)
        (mlp): Sequential(
          (c_fc): Linear(in_features=1024, out_features=4096, bias=True)
          (gelu): QuickGELU()
          (c_proj): Linear(in_features=4096, out_features=1024, bias=True)
        )
        (ln_2): LayerNorm((1024,), eps=1e-05, elementwise_affine=True)
      )
      (12): ResidualAttentionBlock(
        (attn): MultiheadAttention(
          (out_proj): NonDynamicallyQuantizableLinear(in_features=1024, out_features=1024, bias=True)
        )
        (ln_1): LayerNorm((1024,), eps=1e-05, elementwise_affine=True)
        (mlp): Sequential(
          (c_fc): Linear(in_features=1024, out_features=4096, bias=True)
          (gelu): QuickGELU()
          (c_proj): Linear(in_features=4096, out_features=1024, bias=True)
        )
        (ln_2): LayerNorm((1024,), eps=1e-05, elementwise_affine=True)
      )
      (13): ResidualAttentionBlock(
        (attn): MultiheadAttention(
          (out_proj): NonDynamicallyQuantizableLinear(in_features=1024, out_features=1024, bias=True)
        )
        (ln_1): LayerNorm((1024,), eps=1e-05, elementwise_affine=True)
        (mlp): Sequential(
          (c_fc): Linear(in_features=1024, out_features=4096, bias=True)
          (gelu): QuickGELU()
          (c_proj): Linear(in_features=4096, out_features=1024, bias=True)
        )
        (ln_2): LayerNorm((1024,), eps=1e-05, elementwise_affine=True)
      )
      (14): ResidualAttentionBlock(
        (attn): MultiheadAttention(
          (out_proj): NonDynamicallyQuantizableLinear(in_features=1024, out_features=1024, bias=True)
        )
        (ln_1): LayerNorm((1024,), eps=1e-05, elementwise_affine=True)
        (mlp): Sequential(
          (c_fc): Linear(in_features=1024, out_features=4096, bias=True)
          (gelu): QuickGELU()
          (c_proj): Linear(in_features=4096, out_features=1024, bias=True)
        )
        (ln_2): LayerNorm((1024,), eps=1e-05, elementwise_affine=True)
      )
      (15): ResidualAttentionBlock(
        (attn): MultiheadAttention(
          (out_proj): NonDynamicallyQuantizableLinear(in_features=1024, out_features=1024, bias=True)
        )
        (ln_1): LayerNorm((1024,), eps=1e-05, elementwise_affine=True)
        (mlp): Sequential(
          (c_fc): Linear(in_features=1024, out_features=4096, bias=True)
          (gelu): QuickGELU()
          (c_proj): Linear(in_features=4096, out_features=1024, bias=True)
        )
        (ln_2): LayerNorm((1024,), eps=1e-05, elementwise_affine=True)
      )
      (16): ResidualAttentionBlock(
        (attn): MultiheadAttention(
          (out_proj): NonDynamicallyQuantizableLinear(in_features=1024, out_features=1024, bias=True)
        )
        (ln_1): LayerNorm((1024,), eps=1e-05, elementwise_affine=True)
        (mlp): Sequential(
          (c_fc): Linear(in_features=1024, out_features=4096, bias=True)
          (gelu): QuickGELU()
          (c_proj): Linear(in_features=4096, out_features=1024, bias=True)
        )
        (ln_2): LayerNorm((1024,), eps=1e-05, elementwise_affine=True)
      )
      (17): ResidualAttentionBlock(
        (attn): MultiheadAttention(
          (out_proj): NonDynamicallyQuantizableLinear(in_features=1024, out_features=1024, bias=True)
        )
        (ln_1): LayerNorm((1024,), eps=1e-05, elementwise_affine=True)
        (mlp): Sequential(
          (c_fc): Linear(in_features=1024, out_features=4096, bias=True)
          (gelu): QuickGELU()
          (c_proj): Linear(in_features=4096, out_features=1024, bias=True)
        )
        (ln_2): LayerNorm((1024,), eps=1e-05, elementwise_affine=True)
      )
      (18): ResidualAttentionBlock(
        (attn): MultiheadAttention(
          (out_proj): NonDynamicallyQuantizableLinear(in_features=1024, out_features=1024, bias=True)
        )
        (ln_1): LayerNorm((1024,), eps=1e-05, elementwise_affine=True)
        (mlp): Sequential(
          (c_fc): Linear(in_features=1024, out_features=4096, bias=True)
          (gelu): QuickGELU()
          (c_proj): Linear(in_features=4096, out_features=1024, bias=True)
        )
        (ln_2): LayerNorm((1024,), eps=1e-05, elementwise_affine=True)
      )
      (19): ResidualAttentionBlock(
        (attn): MultiheadAttention(
          (out_proj): NonDynamicallyQuantizableLinear(in_features=1024, out_features=1024, bias=True)
        )
        (ln_1): LayerNorm((1024,), eps=1e-05, elementwise_affine=True)
        (mlp): Sequential(
          (c_fc): Linear(in_features=1024, out_features=4096, bias=True)
          (gelu): QuickGELU()
          (c_proj): Linear(in_features=4096, out_features=1024, bias=True)
        )
        (ln_2): LayerNorm((1024,), eps=1e-05, elementwise_affine=True)
      )
      (20): ResidualAttentionBlock(
        (attn): MultiheadAttention(
          (out_proj): NonDynamicallyQuantizableLinear(in_features=1024, out_features=1024, bias=True)
        )
        (ln_1): LayerNorm((1024,), eps=1e-05, elementwise_affine=True)
        (mlp): Sequential(
          (c_fc): Linear(in_features=1024, out_features=4096, bias=True)
          (gelu): QuickGELU()
          (c_proj): Linear(in_features=4096, out_features=1024, bias=True)
        )
        (ln_2): LayerNorm((1024,), eps=1e-05, elementwise_affine=True)
      )
      (21): ResidualAttentionBlock(
        (attn): MultiheadAttention(
          (out_proj): NonDynamicallyQuantizableLinear(in_features=1024, out_features=1024, bias=True)
        )
        (ln_1): LayerNorm((1024,), eps=1e-05, elementwise_affine=True)
        (mlp): Sequential(
          (c_fc): Linear(in_features=1024, out_features=4096, bias=True)
          (gelu): QuickGELU()
          (c_proj): Linear(in_features=4096, out_features=1024, bias=True)
        )
        (ln_2): LayerNorm((1024,), eps=1e-05, elementwise_affine=True)
      )
      (22): ResidualAttentionBlock(
        (attn): MultiheadAttention(
          (out_proj): NonDynamicallyQuantizableLinear(in_features=1024, out_features=1024, bias=True)
        )
        (ln_1): LayerNorm((1024,), eps=1e-05, elementwise_affine=True)
        (mlp): Sequential(
          (c_fc): Linear(in_features=1024, out_features=4096, bias=True)
          (gelu): QuickGELU()
          (c_proj): Linear(in_features=4096, out_features=1024, bias=True)
        )
        (ln_2): LayerNorm((1024,), eps=1e-05, elementwise_affine=True)
      )
      (23): ResidualAttentionBlock(
        (attn): MultiheadAttention(
          (out_proj): NonDynamicallyQuantizableLinear(in_features=1024, out_features=1024, bias=True)
        )
        (ln_1): LayerNorm((1024,), eps=1e-05, elementwise_affine=True)
        (mlp): Sequential(
          (c_fc): Linear(in_features=1024, out_features=4096, bias=True)
          (gelu): QuickGELU()
          (c_proj): Linear(in_features=4096, out_features=1024, bias=True)
        )
        (ln_2): LayerNorm((1024,), eps=1e-05, elementwise_affine=True)
      )
    )
  )
  (ln_post): LayerNorm((1024,), eps=1e-05, elementwise_affine=True)
)
Conv2d(3, 1024, kernel_size=(14, 14), stride=(14, 14), bias=False)
*** AttributeError: 'Conv2d' object has no attribute 'ln_post'
LayerNorm((1024,), eps=1e-05, elementwise_affine=True)
*** TypeError: 'LayerNorm' object is not subscriptable
*** AttributeError: 'LayerNorm' object has no attribute 'shape'
LayerNorm((1024,), eps=1e-05, elementwise_affine=True)
…
