…
         0, 0, 0, 0, 0, 0, 0, 0, 0, 0, 0, 0, 0, 0, 0, 0, 0, 0, 0, 0, 0, 0, 0, 0,
         0, 0, 0, 0, 0, 0, 0, 0, 0, 0, 1, 0, 1, 2, 0, 0, 1, 2, 0, 0]],
       device='cuda:0')
tensor(7, device='cuda:0')
(tensor([0, 0], device='cuda:0'), tensor([325, 329], device='cuda:0'))
[328, 329]
tensor(-1080., device='cuda:0', dtype=torch.bfloat16)
tensor([… device='cuda:0', dtype=torch.bfloat16)
[328, 329]
torch.Size([256])
tensor(-23.3750, device='cuda:0', dtype=torch.bfloat16)
[328, 329]
TemporalMaskPooler(
  (prompt_encoder): PromptEncoder(
    (pe_layer): PositionEmbeddingRandom()
    (point_embeddings): ModuleList(
      (0-3): 4 x Embedding(1, 256)
    )
    (not_a_point_embed): Embedding(1, 256)
    (mask_downscaling): Sequential(
      (0): Conv2d(1, 4, kernel_size=(2, 2), stride=(2, 2))
      (1): LayerNorm2d()
      (2): GELU(approximate='none')
      (3): Conv2d(4, 16, kernel_size=(2, 2), stride=(2, 2))
      (4): LayerNorm2d()
      (5): GELU(approximate='none')
      (6): Conv2d(16, 256, kernel_size=(1, 1), stride=(1, 1))
    )
    (no_mask_embed): Embedding(1, 256)
  )
  (mask_modulator): FilmModulator(
    (projections): ModuleList(
      (0): Linear(in_features=256, out_features=8, bias=True)
      (1): Linear(in_features=256, out_features=32, bias=True)
      (2): Linear(in_features=256, out_features=512, bias=True)
    )
  )
  (block1): Sequential(
    (0): Sequential(
      (0): Conv2d(1, 4, kernel_size=(2, 2), stride=(2, 2))
      (1): LayerNorm2d()
    )
  )
  (activation1): GELU(approximate='none')
  (block2): Sequential(
    (0): Sequential(
      (3): Conv2d(4, 16, kernel_size=(2, 2), stride=(2, 2))
      (4): LayerNorm2d()
    )
  )
  (activation2): GELU(approximate='none')
  (final_conv): Conv2d(16, 256, kernel_size=(1, 1), stride=(1, 1))
  (attn): MultiheadAttention(
    (out_proj): NonDynamicallyQuantizableLinear(in_features=256, out_features=256, bias=True)
  )
)
*** AttributeError: 'TemporalMaskPooler' object has no attribute 'sum'
[328, 329]
[[322, 324, 328]]
tensor(-23.3750, device='cuda:0', dtype=torch.bfloat16)
[322, 324, 328]
tensor([… device='cuda:0', dtype=torch.bfloat16)
tensor(-4.0312, device='cuda:0', dtype=torch.bfloat16)
…
